RL_Model/LC_SAC_2D/best_lcsac_model_circle.pth (torch, 950915 bytes, 64 tensors)

net.fcs.0.weight f4 [128, 30]
0	0x3d8e342e	0.06943546
1	0x3e222bbe	0.15836999
2	0x3e4583f8	0.19288623
3	0xbd98d2bc	-0.074620694
4	0x3d1df121	0.038560037
5	0x3e0ea571	0.13930298
6	0xbd335cda	-0.043789722
7	0xbc214eba	-0.00984543
8	0x3e320784	0.1738568
9	0x3dfbaf50	0.122892976
10	0xbe0bd8b0	-0.13656878
11	0xbe196e14	-0.14983398
12	0x3a8b49d1	0.0010626857
13	0x3dd3224a	0.103092745
14	0x3dc3f3ff	0.09568023
15	0x3e213af2	0.15745142
16	0xbd29e1be	-0.04147505
17	0x3d2f3d03	0.042782795
18	0x3d534613	0.0515805
19	0xbdc1324c	-0.094334215
20	0xbc52fef5	-0.012878169
21	0xbe24e061	-0.16101219
22	0xbc944004	-0.018096931
23	0xbe2b39d0	-0.16721272
24	0x3d356d78	0.04429385
25	0xbd2d6e0d	-0.04234128
26	0x3cebea3e	0.028798219
27	0x3d4f82da	0.0506619
28	0xbe3300e8	-0.17480814
29	0xbda5d9db	-0.08098193
30	0xbe13ff7f	-0.14452933
31	0x3b145e98	0.002263939
32	0xbe39c887	-0.18142901
33	0xbceca191	-0.028885635
34	0x3d89d2ed	0.06729684
35	0x3ca819b0	0.020520061
36	0x3d55e1ab	0.052217167
37	0x3e56729a	0.20942155
38	0xbc7d37b9	-0.01545518
39	0x3c50841e	0.012726812
40	0xbd0cde4e	-0.034391694
41	0xbe20bdaf	-0.15697359
42	0xba2951cc	-0.0006459027
43	0x3e53b6cc	0.206752
44	0x3aa92287	0.0012903967
45	0xbe2fb876	-0.1716021
46	0x3e00f680	0.12594032
47	0x3dee663c	0.116405934
48	0xbbc4c8c5	-0.006005379
49	0x3e3a6fb3	0.18206672
50	0x3d6e8fe6	0.0582427
51	0xbe0794ea	-0.132404
52	0xbde6b5c7	-0.1126514
53	0xbcb33f25	-0.021880696
54	0x3c4101a4	0.011780176
55	0x3d652a42	0.055948503
56	0x3e3e09f9	0.18558492
57	0xbe26499d	-0.16239019
58	0x3b9ede3a	0.004848269
59	0xbca7f6f5	-0.0205035
60	0x3c334407	0.010941512
61	0xbd8f8882	-0.07008459
62	0xbcbcb5ac	-0.023035847
63	0xbe4a72af	-0.19770311
64	0xbdb83bd3	-0.089957856
65	0x3c8612e7	0.016366435
66	0xbe24acd8	-0.1608156
67	0x3e231b1b	0.15928309
68	0xbe1b821a	-0.15186349
69	0xbe154ed8	-0.14580858
70	0x3e20030d	0.15626164
71	0xbdb73414	-0.0894548
72	0xbd85daaf	-0.06535851
73	0x3d591335	0.052996833
74	0xbd230931	-0.039803687
75	0xbbfe2453	-0.007755795
76	0xbe14de8d	-0.14538021
77	0x3dda133a	0.106481984
78	0xbdc89674	-0.09794322
79	0x3e5cd880	0.21566963
80	0xbddbb8b9	-0.107285924
81	0xbe402845	-0.18765362
82	0x3e31628f	0.17322753
83	0xbd9be435	-0.076118864
84	0xbe026f09	-0.12737669
85	0x3d7525d1	0.059850518
86	0x3d17fa0f	0.03710371
87	0x3c52f605	0.012876038
88	0xbd512725	-0.05106272
89	0x3c267e4f	0.01016195
90	0x3dca8edb	0.09890529
91	0xbdbc12a4	-0.09183243
92	0xbc207b4f	-0.009795024
93	0xbd6063a5	-0.05478253
94	0x3da0f0dc	0.0785844
95	0xbdbb86f1	-0.091565974
96	0x3cb75116	0.022377532
97	0x3e182bc0	0.1486044
98	0xbd8b1d02	-0.06792642
99	0x3bde90ce	0.0067921644
100	0xbca147c8	-0.019687548
101	0xbdff2107	-0.12457471
102	0x3e362d1d	0.17790647
103	0xbd9da29e	-0.076970324
104	0xbd946791	-0.07246316
105	0x3d87b41a	0.066261485
106	0x3da8c8c5	0.08241419
107	0x3a8aed73	0.001059933
108	0xbd3a7a1a	-0.0455266
109	0x3de7b5d2	0.11313976
110	0xbd8da1b6	-0.069156095
111	0xbe1927e4	-0.14956623
112	0x3caec206	0.021332752
113	0xbd85e434	-0.06537667
114	0x3e421557	0.18953453
115	0x3a69f1bf	0.00089242676
116	0x3e3ca321	0.18421604
117	0x3e0f27e2	0.13980058
118	0x3df7c294	0.1209766
119	0xbe2318d1	-0.15927435
120	0x3e2eef01	0.1708336
121	0x3d85c1cc	0.065311044
122	0xbe187fc4	-0.14892489
123	0xbdc58cae	-0.09645973
124	0xbd542e68	-0.05180207
125	0xbcdc5e94	-0.026900567
126	0x3e1d7d43	0.15379815
127	0xbdb3fb13	-0.08788123
128	0xbe0d9ded	-0.13829775
129	0xbda2efbb	-0.07955881
130	0xbe22126f	-0.15827344
131	0xbcf0deb2	-0.029403064
132	0x3e1184f2	0.14210871
133	0xbe0ac5d7	-0.13552032
134	0xbc4afeef	-0.0123898825
135	0x3b8d8622	0.0043189684
136	0x3dd337b8	0.10313362
137	0x3c1a7af0	0.009428725
138	0xbd302164	-0.043000594
139	0x3d28b177	0.04118487
140	0x3d62d6be	0.055380575
141	0xbe200ec2	-0.1563063
142	0x3cb67fa3	0.022277659
143	0xbe230a8f	-0.15921997
144	0x3d5a5bfb	0.053310376
145	0xbdd0d8c8	-0.10197598
146	0x3e17061b	0.14748423
147	0xbe0b86ea	-0.13625684
148	0x3e2663aa	0.16248956
149	0x3e09b11b	0.13446467
150	0xbddc48c7	-0.10756069
151	0x3d4dec93	0.050274443
152	0xbd64e303	-0.055880558
153	0xbce89539	-0.028391467
154	0xbb8284de	-0.003983124
155	0xbd1dc22e	-0.038515262
156	0xbdcff4c5	-0.10154108
157	0x3caa0b23	0.020757264
158	0x3dd6896e	0.104754314
159	0xbe206cbf	-0.15666483
160	0x3e399965	0.18124922
161	0xbcf4e6ed	-0.02989527
162	0x3e25d801	0.1619568
163	0x3bd00fc9	0.006349538
164	0x3ced6372	0.028978083
165	0x3dbe41c0	0.092898846
166	0x3de33afd	0.110952355
167	0xbd43d462	-0.047809966
168	0x3db38d07	0.08767133
169	0xbdab9610	-0.083782315
170	0x3db7c638	0.08973354
171	0x3d265554	0.04060872
172	0xbd04f710	-0.03246218
173	0xbcb6c729	-0.022311764
174	0xbdf21653	-0.11820664
175	0x3de8514e	0.11343633
176	0xbe1cbc5d	-0.1530623
177	0xbdb0d2cf	-0.086339585
178	0x3cf32276	0.029679518
179	0xbe078aa1	-0.13236476
180	0xbc011119	-0.007877612
181	0xbddae239	-0.1068768
182	0x3e37b354	0.17939502
183	0x3e28e7be	0.16494653
184	0xbdbbfac7	-0.09178691
185	0xbdf5e1be	-0.120059475
186	0x3e34f681	0.17672159
187	0x3df800ab	0.121095024
188	0xbce38971	-0.027775498
189	0xbdfef68b	-0.12449368
190	0x3e39a982	0.18131068
191	0xbdabc922	-0.083879724
192	0x3e3f8444	0.18702799
193	0xbd7c225f	-0.061556216
194	0x3d194784	0.03742172
195	0x3db1b10d	0.08676348
196	0x3e0785ec	0.13234681
197	0xbc4edaa3	-0.012625369
198	0x3dcd5a9d	0.10027049
199	0x3dc36b96	0.09542005
200	0xbdf1d2ee	-0.1180781
201	0x3d7a90aa	0.06117312
202	0xbded4dcd	-0.11587105
203	0x3e3643ce	0.17799303
204	0x3d64ada0	0.055829644
205	0xbdb8219d	-0.08990786
206	0x3bf08816	0.0073404415
207	0xbe178d58	-0.14800012
208	0x3df30912	0.118669644
209	0xbcb904b8	-0.022585258
210	0x3e2b96a0	0.16756678
211	0xbd9b30f8	-0.075776994
212	0x3dc6eb46	0.097128436
213	0x3e1d2fb5	0.1535023
214	0x3d887f73	0.06664934
215	0xbbcb0d26	-0.006196636
216	0x3e4216d9	0.18954028
217	0xbdeae76c	-0.114699215
218	0xbd639296	-0.055559717
219	0x3c240a0e	0.010012163
220	0x3dc1a2c6	0.09454875
221	0xbcf93436	-0.030420404
222	0x3de97cbc	0.11400744
223	0xbe13bdaf	-0.14427827
224	0xbd89bdee	-0.06725679
225	0x3d6423cc	0.0556982
226	0x3e1c5eda	0.15270558
227	0xbc3dd3c5	-0.011586134
228	0x3d33461b	0.04376803
229	0xbcc5cfd8	-0.02414696
230	0xbd476e0c	-0.048688933
231	0x3e145086	0.14483842
232	0xbdf06dcc	-0.11739692
233	0xbe155396	-0.14582667
234	0x3a46affb	0.0007579324
235	0xbe338379	-0.17530622
236	0xbd351463	-0.044208895
237	0xbb40824b	-0.0029374536
238	0x3e21eb48	0.15812409
239	0x3dd3d60e	0.10343562
240	0x3ddf46dd	0.10902188
241	0x3d2c7f8e	0.042113833
242	0x3bc0ac6e	0.00587993
243	0xbc8711b5	-0.016487936
244	0xbb4e460f	-0.0031474864
245	0x3e00f27c	0.125925
246	0xbd8d54ee	-0.06900965
247	0xbe0ac2a7	-0.13550816
248	0xbd590ff5	-0.052993733
249	0xbdb0b782	-0.08628751
250	0x3e1afe93	0.15136175
251	0xbdca4865	-0.098770894
252	0x3e22e39e	0.15907142
253	0xbcd5a841	-0.026081206
254	0xbdf7639a	-0.12079544
255	0xbe23769d	-0.15963216

net.fcs.0.bias f4 [128]
0	0xbd7c352c	-0.061574146
1	0x3e64a456	0.22328314
2	0xbda88e7a	-0.082303
3	0x3de4f0d3	0.11178746
4	0x3e19d5a1	0.15022899
5	0x3c27b013	0.01023485
6	0xbe172b7c	-0.14762682
7	0x3e19dbd0	0.15025258
8	0x3ab53dd1	0.0013827627
9	0x3dc32d18	0.09530085
10	0xbd8fb69a	-0.0701725
11	0x3c9d631f	0.019212304
12	0xbd25d110	-0.04048258
13	0x3dab2d71	0.08358277
14	0xbd897774	-0.06712237
15	0x3d0bbdd4	0.03411658
16	0x3dbfe7e0	0.093703985
17	0xbd8eec88	-0.069787085
18	0x3db77dc2	0.08959533
19	0xbdc25e5f	-0.09490656
20	0x3dbf3812	0.093368664
21	0xbd93a2ff	-0.072088234
22	0x3d02be38	0.031919688
23	0x3de7e4bc	0.113229245
24	0x3e1dbaf3	0.15403347
25	0x3e35ed58	0.1776632
26	0xbcd9c72d	-0.026584232
27	0x3e09bb3a	0.13450328
28	0xbcc5ed51	-0.024161013
29	0xbd4b1476	-0.04958006
30	0x3cb850e5	0.022499511
31	0x3da463a4	0.080268174
32	0x3d78fcde	0.060788028
33	0x3e4851b8	0.19562423
34	0x3d121679	0.035665963
35	0xbdf4156c	-0.119181484
36	0x3e509532	0.20369413
37	0x3e0d13c0	0.13777065
38	0x3dd61953	0.10454049
39	0xbe248918	-0.16067922
40	0x3d3af01e	0.04563915
41	0xbd985b6e	-0.07439314
42	0xbe01dcff	-0.1268196
43	0xbc5267a8	-0.012842096
44	0xbe0a5d8f	-0.13512252
45	0xbd3cdfb4	-0.046111777
46	0x3e1638fa	0.14670172
47	0xbce598a9	-0.028026896
48	0xbdeb6a17	-0.114948444
49	0xbd9ff28e	-0.078099355
50	0x3e06773e	0.13131425
51	0xbe1ba9b4	-0.15201455
52	0xbe1fa207	-0.15589152
53	0xbe05a760	-0.1305213
54	0xbe147d75	-0.14500983
55	0x3db37a3d	0.087635495
56	0x3e09d802	0.13461307
57	0xbe161945	-0.14658077
58	0x3e10f0f4	0.14154416
59	0x3e0e269d	0.13881917
60	0x3e08451d	0.13307615
61	0xbc2bf772	-0.010496007
62	0xbb0a0686	-0.0021061017
63	0x3db55d55	0.08855692
64	0x3df58f31	0.11990202
65	0x3deaa0f2	0.11456479
66	0xbc9ed620	-0.019389212
67	0xbe24c19f	-0.16089486
68	0x3e10f0c4	0.14154345
69	0x3e0f0db4	0.13970071
70	0xbbc0c1d5	-0.0058824816
71	0x3c04776c	0.008085113
72	0xbd723efc	-0.059142098
73	0xbdfaf3ad	-0.12253509
74	0x3d834988	0.06410509
75	0x3ca4f53b	0.020136466
76	0x3daeabc4	0.085288554
77	0x3c851a0f	0.016247777
78	0x3e25f59c	0.16206974
79	0xbc6af5db	-0.014340843
80	0x3de2c4b9	0.11072678
81	0x3e32d83d	0.17465301
82	0x3def283a	0.116775945
83	0x3e10ef43	0.14153771
84	0x3ce87207	0.028374685
85	0xbd9283ae	-0.07154022
86	0xbdb94272	-0.090458766
87	0x3cd7ab45	0.026326785
88	0xbcde494a	-0.027134556
89	0x3e2f4a04	0.17118078
90	0x3d39234b	0.045199674
91	0xbe0c1571	-0.13680054
92	0x3d44099f	0.047860738
93	0x3dbcad3f	0.092127316
94	0xbd0fcf16	-0.035109602
95	0xbd9cd768	-0.07658273
96	0x3e6212e4	0.22077519
97	0x3a440d44	0.00074787834
98	0x3d93cf2f	0.072172515
99	0x3ca0d5e2	0.019633237
100	0xbddca079	-0.10772795
101	0x3e0b9c21	0.13633777
102	0x3d178c1b	0.03699885
103	0xbd488686	-0.048956417
104	0x3e2827d7	0.16421448
105	0x3e557ce1	0.20848419
106	0x3d9dffa3	0.077147745
107	0xbce2abff	-0.027669905
108	0xbc89d54b	-0.016825339
109	0x3e23f91f	0.16013001
110	0x3da49fd1	0.08038295
111	0x3cd1b955	0.025601069
112	0x3daff28d	0.08591185
113	0x3e100656	0.14064917
114	0xbd19192c	-0.03737752
115	0xbb8b68ae	-0.004254422
116	0xbe280acb	-0.16410367
117	0x3db40809	0.08790595
118	0x3e4e84dc	0.2016787
119	0x3ba43371	0.005011015
120	0x3dc93140	0.09823847
121	0x3dbf4531	0.09339369
122	0xbe20a9de	-0.15689799
123	0xbdad4294	-0.084599644
124	0x3d34a312	0.04410083
125	0x3e17a927	0.1481062
126	0xbd0bdcc6	-0.034146093
127	0x3e1286b7	0.14309202

net.fcs.1.weight f4 [128, 128]
0	0xbc912819	-0.017719315
1	0xbcd06bd4	-0.025442041
2	0xbd11a6ab	-0.035559338
3	0xbd9244a1	-0.07141996
4	0xbd224c4c	-0.039623544
5	0xbc1616ba	-0.009160692
6	0x3d808263	0.06274869
7	0xbd143b11	-0.036189143
8	0xbda45cfd	-0.080255486
9	0x3d9d35b3	0.07676258
10	0xbd83cbdc	-0.064353675
11	0x3cbf03a7	0.023317171
12	0x3daa62bf	0.083196156
13	0xbc8de263	-0.017319864
14	0xbd9fd396	-0.07804029
15	0x3d14b8b1	0.036308948
16	0xbb8712c8	-0.004122112
17	0x3db6a180	0.089175224
18	0xbcf20a21	-0.029545845
19	0x3d9ab9e1	0.07554985
20	0xbc78ad70	-0.0151780695
21	0xbdebaacc	-0.11507186
22	0x3d3f4fc0	0.046706915
23	0x3da31484	0.079628974
24	0xbda8184c	-0.08207759
25	0x3d543154	0.051804855
26	0xbc7d0c20	-0.015444785
27	0x3d51f64a	0.05126027
28	0xbd854485	-0.0650721
29	0xbdb136b9	-0.08653016
30	0x3d5b7f0d	0.053587962
31	0x3d4a3e0e	0.049375586
32	0xbd0ac61c	-0.033880338
33	0x3d7e9134	0.062150195
34	0x3d98ad72	0.07454957
35	0xbc4a0d18	-0.012332223
36	0xbcf7d663	-0.030253595
37	0x3d8a8592	0.06763758
38	0x3d399fc1	0.04531837
39	0xbdaecf60	-0.085356474
40	0x3d9038f3	0.07042112
41	0xbd5eb7da	-0.054374553
42	0xbdc03d7e	-0.09386729
43	0x3cab04b2	0.020876262
44	0x3c867bf5	0.01641653
45	0xbcbe3f64	-0.023223586
46	0xbd1ca6bf	-0.03824496
47	0x3da36f66	0.07980232
48	0x3d2b16bd	0.04176973
49	0x3d8d3e47	0.06896644
50	0xbdab255c	-0.08356735
51	0x3c4c5d42	0.012473406
52	0x3d46e4c6	0.04855802
53	0x3d1af0eb	0.037827414
54	0xbd464c7d	-0.04841279
55	0xbd03f33e	-0.032214396
56	0x3cb82246	0.02247728
57	0xbc284b2e	-0.0102718305
58	0x3d0291f4	0.031877473
59	0x3d8f5734	0.069990546
60	0x3da11aea	0.078664616
61	0x3db5e9a8	0.08882457
62	0x3d50f015	0.05101021
63	0xbc902d8b	-0.017599842
64	0x3def568d	0.1168643
65	0x3ce59cdb	0.028028896
66	0x3a928a31	0.00111801
67	0xbd1a78c9	-0.037712846
68	0x3da64f86	0.08120637
69	0xbc13246f	-0.008980854
70	0x3daf4394	0.085578114
71	0xbd6587ec	-0.05603783
72	0x3b1e5996	0.0024162284
73	0x3d1dedf9	0.038557027
74	0x3dce100f	0.10061657
75	0xbd3ab3a9	-0.045581494
76	0xbaab91f0	-0.0013089757
77	0x3d79b8ea	0.060967363
78	0x3d9afea0	0.07568097
79	0x3d8e6904	0.06953624
80	0x3dcd3afc	0.10021016
81	0x3d578d7c	0.052625164
82	0xbc195f3a	-0.009361083
83	0xbcc01be6	-0.023450803
84	0x3d3e7b9d	0.046504606
85	0x3db73893	0.089463376
86	0x3d4a877b	0.04944561
87	0xbb6e0168	-0.0036316756
88	0xbddc93d7	-0.10770386
89	0x3dac7fe6	0.08422832
90	0x3d6acc9e	0.057324044
91	0x3d1ecd28	0.03876987
92	0xbd9024c1	-0.0703826
93	0x3d9c43db	0.0763013
94	0x3d575b23	0.05257715
95	0xbde42b57	-0.11141079
96	0xbd1597bd	-0.036521662
97	0xbc0a2aa2	-0.008433016
98	0xbd0109ab	-0.03150336
99	0x3b3cd00a	0.0028810524
100	0xbcd6745d	-0.026178533
101	0x3ce0d6bc	0.027446143
102	0x3caaab43	0.020833617
103	0xbdf6d4c6	-0.12052302
104	0x3da52648	0.08063942
105	0xbb9a1f3c	-0.0047034305
106	0x3cf909e0	0.030400217
107	0x3dbe87e5	0.093032636
108	0xbc15af2e	-0.009136004
109	0x3db19bd0	0.08672297
110	0x3dd42368	0.10358316
111	0x3c8404d2	0.01611558
112	0xbada8366	-0.001667124
113	0x3a0167c5	0.00049364223
114	0xbdd6c3fb	-0.10486599
115	0xba8f6edd	-0.0010943074
116	0xbdb1069a	-0.08643837
117	0xbcc6f7be	-0.024288055
118	0xbb6bf5e5	-0.003600472
119	0xbc8ffd72	-0.017576907
120	0xbd713a51	-0.058893505
121	0x3de3b705	0.111188926
122	0x3d59b752	0.053153343
123	0x3dd2caf1	0.10292614
124	0xbbe69b35	-0.007037545
125	0x3d34466e	0.04401248
126	0x3d2496e5	0.040182967
127	0x3d6bb1d9	0.057542656
128	0x3db823cc	0.08991203
129	0x3ca3b4f4	0.019983746
130	0xbd757a53	-0.05993111
131	0x3d6728de	0.05643546
132	0xbdb72e7c	-0.08944413
133	0xbc4ea99a	-0.012613678
134	0x3cd17d56	0.02557246
135	0xbd40d191	-0.047074858
136	0x3da5c63a	0.08094449
137	0x3cadc3be	0.021211501
138	0xbda6cd30	-0.08144605
139	0x3d69ccbb	0.05708001
140	0x3cabe46f	0.020982949
141	0xbc344dde	-0.011004893
142	0x3d5acb04	0.053416267
143	0xbc8ec277	-0.017426712
144	0xbd948276	-0.07251446
145	0xbc3e159e	-0.011601834
146	0xbc5627a4	-0.0130709745
147	0xbd2c606f	-0.042084154
148	0x3d77dcf7	0.060513463
149	0xbcb76f15	-0.022391835
150	0x3cc5056b	0.024050435
151	0xbd111dc7	-0.03542879
152	0xbd973d48	-0.07384735
153	0xbd6f3acd	-0.058405686
154	0xbb9911cc	-0.004671311
155	0x3c6c8bd4	0.0144376345
156	0xbe01c455	-0.12672551
157	0x3b6e9c32	0.0036409018
158	0x3d721895	0.059105475
159	0x3d953deb	0.072872005
160	0xbc2ceb2d	-0.010554117
161	0x3d86601d	0.06561301
162	0xbc5c9b8e	-0.0134648215
163	0x3ce93a11	0.028470071
164	0xbd57699e	-0.05259096
165	0xbd1c071a	-0.03809271
166	0x3d50cca9	0.05097643
167	0x3d5cf18f	0.053941306
168	0x3d1d93e0	0.038471103
169	0xbd62aa22	-0.055338033
170	0x3db3f18f	0.08786308
171	0x3ca8cbf9	0.020605074
172	0x3c6f47ec	0.01460455
173	0xbced5fcb	-0.028976342
174	0xbd6bb7eb	-0.057548445
175	0xbda9f9da	-0.082996085
176	0x3d12ff2a	0.035887875
177	0x3c1d3f0c	0.009597551
178	0x3d7e81e9	0.06213561
179	0xbc59dfde	-0.013298003
180	0xbd2599d6	-0.040429913
181	0x3a52bca7	0.00080389756
182	0xbd916a80	-0.071003914
183	0xbd912cd2	-0.07088627
184	0xbd11b9bb	-0.035577517
185	0x3cb50689	0.022097843
186	0xbc706dcc	-0.014674615
187	0xbcd7fa04	-0.026364334
188	0x3d85fbef	0.06542193
189	0xbe7b0f07	-0.24517451
190	0xbe1fedfd	-0.15618129
191	0x3d7b0536	0.061284266
192	0xbe030444	-0.12794596
193	0xbcbd624e	-0.023118164
194	0x3da839e9	0.082141705
195	0x3d182149	0.03714112
196	0xba90d16e	-0.0011048743
197	0xbcba3bdf	-0.022733627
198	0xbd01cb5d	-0.031688083
199	0x3d8bd630	0.068279624
200	0xbd088f23	-0.03333963
201	0x3b1e1862	0.002412342
202	0xbd825f83	-0.06365874
203	0x3a9efe96	0.0012130316
204	0xba528243	-0.0008030275
205	0xbd3c00cc	-0.045899197
206	0xbcd0c099	-0.025482463
207	0xbd954790	-0.0728904
208	0xbe0117db	-0.12606756
209	0xbd252165	-0.04031505
210	0x3d983e4a	0.07433756
211	0x3d848b33	0.06471863
212	0x3d3dd76b	0.046348017
213	0x3d8269f3	0.063678645
214	0xbdc16557	-0.09443157
215	0x3b6ed76d	0.0036444322
216	0xbda3c2c8	-0.07996136
217	0xbc9fd6b3	-0.019511556
218	0x3d49e3fd	0.049289692
219	0x3d38112d	0.044938255
220	0xbbb94adb	-0.0056546754
221	0xbe2ee0cb	-0.17077939
222	0x3d192fd3	0.037399124
223	0x3d9e91ce	0.07742654
224	0xbdb87f03	-0.090086006
225	0xbc98683e	-0.018604394
226	0x3d1d8127	0.038453247
227	0xbc13e8a7	-0.009027637
228	0x3d9dc5e9	0.07703764
229	0xbc8b1454	-0.016977467
230	0x3ca3d679	0.01999973
231	0x3dcf2ab8	0.1011557
232	0xbddad787	-0.1068564
233	0x3c4d854e	0.012543989
234	0xbdf460d2	-0.119325295
235	0xbcbb8bf9	-0.022893893
236	0xbdbdb612	-0.09263243
237	0xbde3413e	-0.11096428
238	0xbdbdb704	-0.09263423
239	0xbd0b2519	-0.033970926
240	0xbd414b38	-0.047190875
241	0xbc7c6419	-0.0154047245
242	0x3ca7cb6a	0.020482738
243	0xbddbf46a	-0.10739978
244	0x3dd3d6a4	0.10343674
245	0x3d5a09f9	0.053232167
246	0xbcedd623	-0.029032772
247	0x3cff539d	0.0311678
248	0xbb5b490a	-0.0033460283
249	0xbd8b8d5a	-0.0681407
250	0x3d2e00e4	0.042481318
251	0xbab9d70d	-0.001417847
252	0x3d9def7b	0.07711693
253	0xbd2c88da	-0.0421227
254	0xbdb2270c	-0.08698854
255	0x3cb97c0f	0.022642164

net.fcs.1.bias f4 [128]
0	0x3d36c1c2	0.044618376
1	0x3d02b918	0.0319148
2	0x3b65457b	0.003498404
3	0x3d6302a7	0.05542245
4	0x3a2e738a	0.000665479
5	0x3d420344	0.047366396
6	0xbd721ecb	-0.059111398
7	0x3ce29114	0.02765707
8	0x3bcbc507	0.006218556
9	0x3d119f17	0.03555211
10	0x3de5423a	0.11194272
11	0xbda7b2b7	-0.08188384
12	0x3b862717	0.0040940153
13	0x3d563b9a	0.052302934
14	0x3d954f15	0.07290474
15	0xbcb3ae1c	-0.021933608
16	0xbc36db76	-0.011160722
17	0x3baac2b9	0.005211201
18	0xbda781b8	-0.08179039
19	0xbd7faa7b	-0.062418442
20	0x3de0e9b4	0.10982075
21	0x3d0e7d29	0.03478733
22	0xbd19fa4c	-0.037592217
23	0xbdb11bc3	-0.08647873
24	0x3d9f2017	0.077697925
25	0xbd608012	-0.054809637
26	0xbc4ddb05	-0.012564425
27	0xbc52645e	-0.012841312
28	0x3dc6399d	0.096789576
29	0x3d2e254a	0.04251603
30	0x3bf126d2	0.007359364
31	0x3ca2168b	0.01978614
32	0x3de965ee	0.11396395
33	0xbc3771ba	-0.011196548
34	0x3dbcb54d	0.09214268
35	0xbcaf3eea	-0.021392304
36	0xbd517394	-0.051135615
37	0xbd16ff68	-0.036864668
38	0x3c9ff8a4	0.01952774
39	0xbd8f655a	-0.07001753
40	0x393654ef	0.00017388513
41	0x3b77849c	0.003776825
42	0xbd77fd2a	-0.06054417
43	0xbd2b6f6e	-0.041854315
44	0xbd629798	-0.055320352
45	0x3c791bf0	0.015204415
46	0x3ca96d0f	0.020681886
47	0x3aa7761a	0.0012776286
48	0xbd46d171	-0.048539583
49	0x3bfdb3a2	0.007742361
50	0xbd99d4f9	-0.075113244
51	0xbc3e82cf	-0.011627867
52	0x3ce7d8d6	0.028301638
53	0xbd91c0ae	-0.07116829
54	0x3d5ef035	0.054428298
55	0xbcf510a1	-0.029915156
56	0x3cb850a5	0.022499392
57	0x3c209201	0.009800435
58	0xbd9c6f7d	-0.07638452
59	0xbddc6c44	-0.107628375
60	0x3c95dc1c	0.018293433
61	0xbd67111f	-0.056412812
62	0x3d9090ce	0.07058869
63	0x3daa66cd	0.08320389
64	0x3c59c0ed	0.013290626
65	0x3d97baab	0.07408651
66	0xbcebc4e2	-0.028780404
67	0x3d2f5391	0.042804305
68	0x3b8337b9	0.0040044454
69	0x3dad0d35	0.08449785
70	0xbdafbc93	-0.085808896
71	0xbc41d37d	-0.011830208
72	0x3dd7e7f9	0.10542292
73	0xbdc92dd7	-0.098231964
74	0xbd9fe36c	-0.07807049
75	0x3ddcae0b	0.107753836
76	0xbce98a3b	-0.028508296
77	0x3d57c53d	0.052678335
78	0xbd403965	-0.046929736
79	0xbc8ed6e1	-0.017436447
80	0x3dd51c13	0.10405745
81	0xbc3d3324	-0.011547837
82	0x3d5181e5	0.051149268
83	0xbd5ceafb	-0.053935032
84	0xbb0ef506	-0.0021813526
85	0x3ca2ecc9	0.019888299
86	0xbb87f3f1	-0.004148953
87	0x3c810313	0.015748536
88	0x3d548ef6	0.05189415
89	0x3b9bd635	0.00475576
90	0x3d9b0612	0.07569517
91	0xbd8a4580	-0.06751537
92	0x3d4820e3	0.04885949
93	0xbd853cfa	-0.06505771
94	0xbb63ba5f	-0.0034748537
95	0xbd1f1c13	-0.038845133
96	0xbd923d25	-0.07140569
97	0x3d4e9c51	0.050442044
98	0xbda342aa	-0.079716995
99	0xbd94e23a	-0.07269712
100	0xbced7db3	-0.028990602
101	0x3dd3aa4c	0.10335216
102	0xbcdd37f8	-0.027004227
103	0xbc76c297	-0.015061042
104	0xbd1e2ab8	-0.03861496
105	0xbd20a283	-0.039217483
106	0xbd00f0ed	-0.031479765
107	0x3d0f1601	0.034933094
108	0x3c915d8a	0.017744798
109	0xbd4c6ebf	-0.049910303
110	0xbc40c75c	-0.011766281
111	0xbc8f00b7	-0.017456396
112	0x3d0cfd9d	0.034421552
113	0xbd11a241	-0.035555128
114	0xbdc3d1a9	-0.09561474
115	0x3d05766e	0.032583646
116	0x3d1d60ea	0.038422503
117	0x3d764924	0.060128346
118	0x3c417c98	0.011809491
119	0xbbeb675b	-0.007183952
120	0x3cfe2473	0.03102324
121	0xbd576654	-0.052587822
122	0xbd0fc5f9	-0.03510091
123	0x3daa0e64	0.08303526
124	0xbd01621e	-0.031587712
125	0xbca6c16b	-0.0203559
126	0x3dbd35d4	0.092387825
127	0xbd530473	-0.051517915

mu_layer.weight f4 [2, 128]
0	0x3d96ec10	0.07369244
1	0xbd8baa44	-0.06819585
2	0xbd9dfc5b	-0.077141486
3	0xbd8a68f3	-0.06758299
4	0x3dab1622	0.08353831
5	0xbd92e825	-0.07173184
6	0x3c843643	0.016139155
7	0x3db78a66	0.08961944
8	0xbdc7cc5a	-0.09755774
9	0x3d5ac262	0.053408034
10	0xbd6ebc3e	-0.05828499
11	0xbd95c689	-0.07313258
12	0x3da4c2a1	0.08044935
13	0xbdb54a3c	-0.0885205
14	0xbd9b1e24	-0.07574108
15	0xbd68feec	-0.056883737
16	0xbc8789d9	-0.016545223
17	0xbda8a0da	-0.08233805
18	0xbb92a1e5	-0.0044748657
19	0xbdab50c0	-0.08365011
20	0xbd12ac68	-0.03580895
21	0xbd11c87b	-0.035591584
22	0x3cc380ad	0.023865068
23	0x3d3635bc	0.04448484
24	0x3d7d9102	0.06190587
25	0xbd8bedf0	-0.06832492
26	0xbd2f6182	-0.0428176
27	0x3d5d2398	0.053989023
28	0x3d09a1aa	0.03360144
29	0xbd861777	-0.06547444
30	0xbd615063	-0.055008303
31	0x3c9c5b45	0.01908649
32	0xbc683c50	-0.014174536
33	0x3d843392	0.06455149
34	0x3cc267d9	0.023731159
35	0xbd7bfcc6	-0.06152036
36	0xbd2fe4b2	-0.04294271
37	0x3cd27ecb	0.025695225
38	0xbd6f8a6e	-0.058481626
39	0xbdae1f17	-0.08502024
40	0xbd0c0554	-0.03418477
41	0xbcc41c72	-0.023939345
42	0x3cca6eae	0.02471098
43	0x3da5ae15	0.08089844
44	0xbcf6097f	-0.030033825
45	0x3d662760	0.056189895
46	0xbd8da8c0	-0.06916952
47	0xbd39767d	-0.045279015
48	0x3c441b67	0.011969424
49	0xbd66d2df	-0.056353446
50	0xbd2e5daa	-0.042569794
51	0xbd24adc5	-0.040204782
52	0x3d19446c	0.037418768
53	0x3c954008	0.018219009
54	0xbd11b301	-0.035571102
55	0xbd5ed36a	-0.05440084
56	0x3d849baa	0.06475003
57	0xbd865dc6	-0.065608546
58	0xbd5126cc	-0.05106239
59	0xbd6d5dad	-0.057950664
60	0x3d351c3f	0.04421639
61	0x3d0779b4	0.03307505
62	0x3d4b6252	0.049654312
63	0x3d053675	0.032522637
64	0xbd41db3b	-0.047328215
65	0x3dbc27b8	0.09187263
66	0x3d875de3	0.06609704
67	0xbd82ba33	-0.06383171
68	0xbbad94fa	-0.0052973004
69	0xbd25f3da	-0.040515758
70	0xbd423ee9	-0.047423277
71	0x3daae535	0.08344499
72	0x3d8a74f3	0.067605875
73	0xbaf97ee8	-0.0019035013
74	0xbdc2a3a3	-0.095038675
75	0xbcb7dbc6	-0.022443663
76	0x3dac2608	0.084056914
77	0xbd9ebd48	-0.07750946
78	0xbdb3232c	-0.08746943
79	0xbd3ea6fb	-0.046545964
80	0xbdc428f1	-0.095781215
81	0x3da7196b	0.08159145
82	0x3dacc5dc	0.08436176
83	0xbd96762b	-0.073467575
84	0x3db00b1f	0.08595871
85	0x3db05844	0.08610585
86	0x3d89e175	0.06732456
87	0x3d0e7ca9	0.034786854
88	0x3d5af7bc	0.053458914
89	0x3d8b9562	0.06815602
90	0xbdbaaf9e	-0.091155276
91	0xbd9c933e	-0.07645272
92	0xbd0b4ee8	-0.034010798
93	0x3daafdf2	0.083492175
94	0xbda92c92	-0.08260454
95	0xbc1c58fb	-0.009542699
96	0xbdb7bff3	-0.08972158
97	0x3d7ea7e8	0.062171847
98	0x3d911956	0.070849106
99	0x3d9d040d	0.07666788
100	0x3d35e709	0.044409785
101	0xbcd7045d	-0.026247198
102	0x3d669862	0.056297667
103	0x3c965b31	0.01835403
104	0xbb1237b1	-0.0022311027
105	0x3d1554e7	0.036457922
106	0x3d82b8e1	0.06382919
107	0x3c706e91	0.014674799
108	0xbd690865	-0.05689277
109	0xbd251e3a	-0.04031203
110	0xbd43e60a	-0.047826804
111	0x3d58e51b	0.052952867
112	0x3d845e29	0.06463272
113	0xbd289ad7	-0.04116329
114	0x3c205108	0.009784944
115	0x3db23b68	0.08702737
116	0x3c7e4f1d	0.015521792
117	0xbda0c8f0	-0.07850826
118	0xbd347845	-0.04406001
119	0xbda80038	-0.08203167
120	0xbd60f28c	-0.05491881
121	0x3da79fff	0.08184814
122	0x3d980e3b	0.07424589
123	0xbd4ed98e	-0.050500445
124	0x3c2a2ab4	0.010386158
125	0xbdbef12a	-0.09323342
126	0x3dc8a70e	0.09797488
127	0x3d9e5a6c	0.0773209
128	0x3cb82a50	0.022481114
129	0xbd6622f2	-0.05618567
130	0xbdb9b331	-0.09067381
131	0x3cbbee88	0.022940889
132	0x3ca274dc	0.019831114
133	0x3c8d95db	0.01728337
134	0xbd8c2023	-0.06842067
135	0xbc986370	-0.018602103
136	0xbd8591fa	-0.065219834
137	0x3d35e5c6	0.044408582
138	0xbceda1d0	-0.029007822
139	0x3d34201e	0.04397594
140	0xbda06318	-0.07831401
141	0x3da92e8c	0.08260831
142	0xbd923956	-0.07139842
143	0xbb27165d	-0.0025495507
144	0xbd340d09	-0.043957744
145	0xbd94c697	-0.072644405
146	0xbcc53190	-0.024071485
147	0xbd0be7e7	-0.034156706
148	0xbdc93e80	-0.09826374
149	0xbcad9314	-0.021188296
150	0x3d1901e7	0.03735533
151	0xbd9d5a6d	-0.07683263
152	0xbd397c9b	-0.04528485
153	0x3c045306	0.008076435
154	0xbb8301f8	-0.0039980374
155	0x3cc32b7a	0.023824442
156	0x3cba960c	0.022776626
157	0xbda71c22	-0.08159663
158	0x3d8a7173	0.0675992
159	0x3d5710cf	0.052506264
160	0x3c4f020f	0.012634768
161	0x3db99c24	0.090629846
162	0xbbb9e026	-0.0056724725
163	0xbd719ef8	-0.058989495
164	0x3dbb535b	0.09146758
165	0x3caa49ce	0.020787146
166	0xbcdc59da	-0.026898313
167	0x3cf216c0	0.029551864
168	0xba7e8d60	-0.00097103976
169	0x3d06908d	0.032852698
170	0xbcf49584	-0.02985645
171	0x3d1b1255	0.03785928
172	0x3c90f5f2	0.0176954
173	0xbd86de11	-0.065853246
174	0x3cea8971	0.02862999
175	0x3c343cc9	0.01100082
176	0x3d3a11d4	0.04542716
177	0x3c92c7af	0.017917482
178	0x3cfc9c64	0.030836292
179	0x3c74fea4	0.014953289
180	0xbc13281c	-0.008981731
181	0xbca4733e	-0.020074483
182	0x3d99e1ef	0.075137965
183	0xbca90fc2	-0.020637397
184	0xbc05f5ce	-0.00817628
185	0x3ced3b23	0.028958863
186	0xbd2aa79e	-0.04166376
187	0x3c562e9f	0.013072639
188	0x3d0d4598	0.034490198
189	0xbd8292e1	-0.06375671
190	0x3cf4c7d8	0.02988045
191	0xbc86417f	-0.016388653
192	0xbcd43c45	-0.025907645
193	0xbcb5a582	-0.022173647
194	0xbce16d2b	-0.027517876
195	0xbde5f49d	-0.11228297
196	0x3d43434e	0.04767161
197	0xbd3b3d21	-0.045712594
198	0xba1bb024	-0.0005939028
199	0xbdc23298	-0.09482306
200	0x3c8f347d	0.017481083
201	0xbd467e89	-0.048460517
202	0x3da09d1e	0.07842468
203	0xbd5ac97d	-0.05341481
204	0xbdb53c55	-0.08849398
205	0xbcb5ef16	-0.022208732
206	0xbd5d8abf	-0.054087397
207	0xbd451d90	-0.048123896
208	0x3b48f951	0.0030666182
209	0xbd81c541	-0.06336451
210	0x3d462ac8	0.048380643
211	0x3b8da6d1	0.0043228646
212	0x3d2eb8a7	0.042656567
213	0x3d91bc33	0.07115974
214	0xbd22c58b	-0.039739173
215	0xbdae915c	-0.08523819
216	0xbd87f4ec	-0.06638512
217	0x3d9f619f	0.077822916
218	0xbd70add9	-0.058759544
219	0xbd818edd	-0.06326077
220	0xbd998fe6	-0.074981496
221	0x3dc0e415	0.09418503
222	0xbdaede47	-0.0853849
223	0xbd4b4bab	-0.04963271
224	0xbcfc83a3	-0.030824488
225	0xbd908544	-0.070566684
226	0x3c1389d1	0.009005026
227	0xbdc3fb06	-0.09569363
228	0x3d59c4f1	0.053166334
229	0xbbd34ad3	-0.0064481287
230	0xbd8ac80a	-0.06776436
231	0x3d85fc97	0.06542318
232	0x3d6dc92c	0.05805318
233	0xbce4164e	-0.027842667
234	0x3b7531b2	0.0037413654
235	0x3dc76dbc	0.09737727
236	0xbd454a0a	-0.048166312
237	0xbc7ee4ee	-0.015557511
238	0x3dafffad	0.08593688
239	0x3cf83147	0.030296935
240	0x3da7916b	0.08182033
241	0xbdba669d	-0.09101603
242	0x3d9b3fe4	0.075805455
243	0x3d88a95e	0.06672929
244	0xb9901696	-0.00027482648
245	0xbdca4202	-0.09875871
246	0xbcfef4f5	-0.031122664
247	0x3bd9efdd	0.0066509084
248	0xbdb13187	-0.08652025
249	0xbd0c4041	-0.034240965
250	0x3da1f63f	0.07908296
251	0x3cda00f6	0.026611786
252	0xbc3cdf64	-0.01152787
253	0x3d70bb0b	0.058772128
254	0x3c837f8e	0.016052034
255	0x3b6cd0dc	0.0036135232

mu_layer.bias f4 [2]
0	0xbd9547fc	-0.072891206
1	0xbba96db9	-0.0051705507

log_std_layer.weight f4 [2, 128]
0	0xbdd01fe1	-0.101623304
1	0x3d8852ad	0.06656394
2	0xbd0b11db	-0.033952575
3	0xbdb74971	-0.08949555
4	0xbccc7fb2	-0.024963234
5	0x3d2c2210	0.042024672
6	0xbd727ecd	-0.059202958
7	0xbd165f5a	-0.036712028
8	0xbad8dd69	-0.0016545478
9	0xbcf43c35	-0.029813865
10	0xbdf3cf86	-0.11904816
11	0x3d82c885	0.06385902
12	0xbc999af6	-0.018750649
13	0xbda31740	-0.07963419
14	0xbd8d3498	-0.06894797
15	0xbca5f2ca	-0.020257372
16	0xbdd5cf01	-0.104398735
17	0xbdd2668c	-0.102734655
18	0x3daecae4	0.08534792
19	0x3db6b777	0.08921712
20	0xbd115dba	-0.035489775
21	0xbdd8b1f9	-0.105808206
22	0x3de3e420	0.11127496
23	0x3db3158f	0.08744346
24	0xbd25e4e3	-0.040501487
25	0xbdbe91e1	-0.09305168
26	0xbdae6136	-0.08514635
27	0x3d6bb4aa	0.05754534
28	0xbd58f565	-0.0529684
29	0x3cbc8f32	0.0230175
30	0xbc0e893f	-0.008699714
31	0xbc05f58d	-0.00817622
32	0xbd83b9d0	-0.06431925
33	0xbd6b7d12	-0.057492323
34	0xbda095b8	-0.078410566
35	0xbd8edc45	-0.06975607
36	0xbb8e8038	-0.004348781
37	0xbd374178	-0.04474017
38	0xbdd5e439	-0.10443921
39	0x3da4be79	0.08044142
40	0x3d3838be	0.04497599
41	0x3ced2717	0.028949304
42	0x3d7e6a7e	0.062113278
43	0xbd4f7b7c	-0.050654873
44	0x3d776f59	0.060408924
45	0xbd6656b7	-0.05623504
46	0xbd269b6c	-0.040675566
47	0xbcd81018	-0.026374862
48	0xbc7d54c2	-0.015462102
49	0xbd7c736b	-0.06163351
50	0x3d4af75e	0.049552314
51	0x3d194ed6	0.0374287
52	0xbdf182e1	-0.11792541
53	0x3dc42b16	0.095785305
54	0xbc89f6d3	-0.016841328
55	0x3d8c450c	0.06849107
56	0x3d98853d	0.07447288
57	0x3b39e562	0.0028365483
58	0x3d1ef4e4	0.038807765
59	0x3da8f0f6	0.08249085
60	0xbda0938a	-0.07840641
61	0x3d8eccc8	0.06972653
62	0xbaa7bfea	-0.0012798284
63	0xbda2a598	-0.07941741
64	0x3c03ef18	0.00805261
65	0x3d0c811b	0.034302812
66	0xbd7dda1c	-0.061975583
67	0xbdcbb2d5	-0.09946219
68	0xbda72924	-0.08162144
69	0xbd6f94d6	-0.05849155
70	0x36d1292b	6.233478e-06
71	0xbcff85a0	-0.031191647
72	0xbd20cebf	-0.03925967
73	0x3ac4a360	0.0015002303
74	0xbbee9638	-0.007281091
75	0xbca2c2ff	-0.019868372
76	0x3da2ebed	0.079551555
77	0xbd8f1f39	-0.06988377
78	0xbd43332f	-0.047656234
79	0xbd9cb949	-0.07652528
80	0xbd7ac853	-0.0612262
81	0x3d961c75	0.073296465
82	0xbd2eda2e	-0.04268854
83	0xbaed0fe9	-0.0018086407
84	0xbd6aa389	-0.057284866
85	0x3db1ef38	0.086882055
86	0x3d3178ad	0.043327976
87	0x3d1cfcca	0.038327016
88	0xbceeacad	-0.029135073
89	0x3d9c31c6	0.07626681
90	0xbdeecadb	-0.11659785
91	0xbdc389cc	-0.09547767
92	0xbe03e3dc	-0.1287989
93	0x3d9ec198	0.07751769
94	0x3dca2be0	0.0987165
95	0xbda3510c	-0.07974443
96	0x3d07c9fd	0.033151615
97	0x3d913d05	0.07091717
98	0x3d6dc328	0.058047444
99	0xbd801fe9	-0.062560864
100	0x3d6be816	0.05759438
101	0xbda3bbb7	-0.07994788
102	0x3db04807	0.08607488
103	0x3d740838	0.05957815
104	0xbd69320d	-0.056932498
105	0xbd86386e	-0.06553732
106	0xbdc09b92	-0.09404673
107	0xbd154d0f	-0.036450442
108	0xbd8f7da0	-0.07006383
109	0xbd82b1e7	-0.063815884
110	0x3d93ad58	0.07210797
111	0xbde1d043	-0.11026051
112	0xbd5dabaa	-0.05411879
113	0xbc9a8561	-0.018862428
114	0x3d4165c5	0.047216196
115	0x3cf4631e	0.029832419
116	0x3d3a0e35	0.045423705
117	0xbd5b32be	-0.05351519
118	0xbd90f3f3	-0.070777796
119	0xbd640bf8	-0.055675477
120	0xbcaa2969	-0.020771699
121	0xba9c8afe	-0.0011943278
122	0xbd113f7b	-0.03546093
123	0xbdde1ec7	-0.10845714
124	0xbcbc264e	-0.022967484
125	0x3d822f59	0.06356687
126	0xbdc04c16	-0.09389512
127	0x3c8d3066	0.017234992
128	0xbdb97c4b	-0.0905691
129	0x3d4f0292	0.05053956
130	0xbd58fb38	-0.052973956
131	0xbd7a4ff2	-0.061111398
132	0xbcfb23f1	-0.030656787
133	0xbd9fc684	-0.07801536
134	0xbd80b5f1	-0.062847026
135	0xbd7884af	-0.060673412
136	0xbdb42834	-0.08796731
137	0x3d9d4971	0.076800235
138	0xbded67ee	-0.11592089
139	0xbd8ede4f	-0.06975996
140	0xbcdfb66f	-0.02730867
141	0xbd822982	-0.06355573
142	0xbd647228	-0.05577293
143	0xbdae52da	-0.085118964
144	0xbd8641e7	-0.065555386
145	0xbc828352	-0.015931759
146	0x3d31f9e9	0.043451224
147	0xbbaf6f5c	-0.0053538512
148	0xbdd06e07	-0.10177236
149	0xbd69dcc0	-0.05709529
150	0xbcbb9517	-0.02289824
151	0x3de0f778	0.10984701
152	0xbc165f42	-0.009177985
153	0xbd0b8c31	-0.034069244
154	0xbbe87f7e	-0.0070952764
155	0x3d8a026c	0.06738743
156	0xbd44d637	-0.048055854
157	0x3d2cec19	0.042217348
158	0xbccbe69a	-0.024890233
159	0x3db475c5	0.08811525
160	0xbdaeffaa	-0.08544858
161	0x3d69ef4c	0.057112977
162	0xbc87c966	-0.016575526
163	0x3a270977	0.0006371955
164	0xbd8b406f	-0.06799399
165	0xbca5e9ef	-0.02025315
166	0xbca12c88	-0.019674554
167	0xbc2a20b5	-0.0103837745
168	0x3db11705	0.08646969
169	0x3da06a7c	0.0783281
170	0x3dd8c316	0.10584085
171	0x3d8751de	0.06607412
172	0x3db9b9ad	0.09068618
173	0xbce53efa	-0.027984131
174	0xbda3c806	-0.07997136
175	0xbba60dc6	-0.00506756
176	0xbdd1e803	-0.10249331
177	0x3d0a3690	0.03374344
178	0xbd4f0351	-0.050540272
179	0xbd88976c	-0.066695064
180	0xbdca46b0	-0.09876764
181	0x3db76f95	0.089568295
182	0x3dcf09b2	0.10109271
183	0x3d9d5153	0.07681527
184	0xbd4c5085	-0.049881477
185	0x3db9caa6	0.09071855
186	0x3d7b6517	0.061375704
187	0x3dc33f81	0.09533597
188	0xbdb656e5	-0.089032926
189	0x3c9cfff4	0.019165017
190	0xbdbd7bda	-0.092521384
191	0xbd682334	-0.056674197
192	0x3d9fc5ca	0.07801397
193	0x3ba49832	0.005023026
194	0xbd8449a1	-0.06459356
195	0x3c7c6844	0.015405718
196	0x3d90c05e	0.07067941
197	0xbc8f3e82	-0.01748586
198	0x3d7dd1b4	0.061967567
199	0xb9a153b5	-0.0003077068
200	0xbd3d8884	-0.04627277
201	0x3da95ba9	0.08269436
202	0x3d8d5d58	0.069025695
203	0xbd89a6a8	-0.0672124
204	0x3c8e0252	0.01733509
205	0x3d8441d4	0.06457868
206	0xbda8bf82	-0.08239652
207	0xbd49d4d4	-0.049275234
208	0xbd9a41cb	-0.0753208
209	0x3dd2a4e7	0.10285359
210	0x3d0cf51c	0.034413442
211	0x3cfaff8a	0.030639429
212	0xbd3112bb	-0.043230753
213	0x3dc7b745	0.09751753
214	0xbd41fe58	-0.0473617
215	0x3db3d89b	0.087815486
216	0x3db35e51	0.08758224
217	0x3d880420	0.06641412
218	0xbdbf1b9d	-0.09331439
219	0x3c8fd652	0.01755825
220	0xbd817809	-0.06321723
221	0x3d5ab8dc	0.053398952
222	0x3cb0c20e	0.021576907
223	0xbc8b3dd5	-0.016997257
224	0xbd4812ae	-0.04884594
225	0x3d684061	0.05670202
226	0xbb034184	-0.0020028064
227	0x3d235927	0.039879944
228	0x3dc2c916	0.0951101
229	0xbde0be49	-0.10973794
230	0x3c9add8f	0.018904475
231	0x3d828539	0.063730665
232	0xbdd98f76	-0.10623066
233	0xbdb2e0b3	-0.08734264
234	0xbde51b80	-0.11186886
235	0x3cba645b	0.022752931
236	0xbdc7aca8	-0.097497284
237	0x3d7f1b63	0.062281977
238	0x3cfcfd34	0.030882455
239	0xbcab0fb7	-0.020881517
240	0xbbd65151	-0.0065404554
241	0xbd94fd21	-0.07274843
242	0x3c78be70	0.015182123
243	0x3df951da	0.12173815
244	0x3c530da4	0.01288167
245	0x3d8e9e4b	0.06963786
246	0x3d25d1a0	0.040483117
247	0xbd139fa4	-0.036040917
248	0xbdb8d941	-0.09025813
249	0x3c8cabec	0.017171822
250	0xbdc66ebd	-0.096890904
251	0xbd9b4ceb	-0.0758303
252	0xbd5de427	-0.05417266
253	0xbc6f904b	-0.0146218045
254	0xbd1d2432	-0.038364597
255	0x3d45225c	0.04812847

log_std_layer.bias f4 [2]
0	0x3d04a5ab	0.032384556
1	0x3d4bd594	0.04976423

q_net.fcs.0.weight f4 [128, 32]
0	0x3d2400ad	0.040039707
1	0xbd4428e9	-0.047890577
2	0x3db43449	0.08799035
3	0x3e7831ce	0.24237749
4	0x3e333e6b	0.1750428
5	0xbe210768	-0.15725482
6	0xbd3b1c7b	-0.045681458
7	0x3c9ef183	0.019402271
8	0xbd452f2b	-0.048140686
9	0xbcf90792	-0.030399118
10	0xbc5dfda4	-0.013549242
11	0xbe0c8a99	-0.13724746
12	0xbd998d14	-0.07497612
13	0x3e827704	0.25481427
14	0xbd1e1e28	-0.038602978
15	0xbe14bb82	-0.14524654
16	0x3cd5042a	0.026002962
17	0x3d88038a	0.066413
18	0xbdd4e7ce	-0.10395776
19	0x3afe9274	0.0019422309
20	0x3e0ff72b	0.14059131
21	0x3df7896a	0.120867565
22	0x3ce5302f	0.027977077
23	0xbe180592	-0.14845875
24	0x3e4fc0b1	0.2028835
25	0x3e93431f	0.28762147
26	0xbe016a0e	-0.12638113
27	0xbdbc4f97	-0.09194868
28	0x3d243e01	0.040098194
29	0x3e1321b4	0.14368325
30	0x3e1f764b	0.15572469
31	0xbebb4c43	-0.3658162
32	0xbe9fc3be	-0.31204027
33	0x3d3f7feb	0.04675285
34	0x3eb81b01	0.35958102
35	0x3cdb5133	0.026772117
36	0xbe54bc74	-0.20775014
37	0x3c295ad7	0.010336599
38	0x3e2e70f1	0.17035271
39	0xbe10aca2	-0.14128354
40	0xbe2c9a3b	-0.16855709
41	0x3e3d80d3	0.18506174
42	0xbc2c6765	-0.010522698
43	0xbdf24c28	-0.11830932
44	0xbd507737	-0.050894942
45	0x3dd140ba	0.10217424
46	0x3d0eba5c	0.034845695
47	0xbce791af	-0.02826771
48	0xbd46ebe3	-0.048564803
49	0xbb97da9c	-0.0046342146
50	0xbc81a5ac	-0.015826069
51	0x3e097271	0.13422562
52	0xbdcfd8df	-0.10148787
53	0x3c0b47fc	0.008501049
54	0xbd49565c	-0.049154624
55	0xbe241cf8	-0.16026676
56	0x3cd8b7d4	0.026454844
57	0xbd8f3aa2	-0.06993605
58	0xbe10fa3f	-0.14157961
59	0xbc6d6331	-0.014488981
60	0xbd6d55cc	-0.05794315
61	0x3e127ed8	0.143062
62	0xbd80f659	-0.06296987
63	0x3e762f41	0.24041463
64	0x3d422e91	0.04740769
65	0x3e309b32	0.17246702
66	0xbdc2f146	-0.095186755
67	0x3da3b5ef	0.079936855
68	0xbe1767a9	-0.14785637
69	0x3d6b2ec7	0.057417657
70	0x3e22f418	0.15913427
71	0x3e4ed584	0.20198637
72	0x3e445947	0.19174682
73	0x3e5b17ca	0.21395794
74	0x3e039387	0.12849246
75	0xbdefeac1	-0.11714698
76	0x3caab364	0.020837493
77	0x3e47471c	0.1946072
78	0x3e1c0ea6	0.15239963
79	0x3e571b09	0.21006407
80	0x3d5df9e2	0.054193385
81	0xbd96d2dc	-0.07364437
82	0x3d9e06b9	0.07716126
83	0x3c38e35f	0.011284678
84	0x3cac47c6	0.021030318
85	0xbd839954	-0.064257294
86	0x3d6d3c35	0.057918746
87	0x3d350b94	0.044200495
88	0xbd191fca	-0.037383832
89	0x3e39a304	0.18128592
90	0xbaa1e31b	-0.0012351008
91	0x3e70900e	0.23492453
92	0xbd4cbcda	-0.04998479
93	0x3e252b8b	0.16129892
94	0xbea157b8	-0.31512237
95	0x3ecb753f	0.3973789
96	0x3e264399	0.16236724
97	0x3de1fe1d	0.110347964
98	0xbe830f1e	-0.2559747
99	0x3d9388eb	0.072038494
100	0xbdda6b6d	-0.10665021
101	0xbd7d9001	-0.06190491
102	0xbe0f61d7	-0.14002167
103	0xbdc4270c	-0.0957776
104	0xbdd88ad7	-0.105733566
105	0x3d479faa	0.048736252
106	0xbdd2eb67	-0.10298806
107	0x3e1409f6	0.14456925
108	0xbd43ec8b	-0.047833007
109	0x3dad2db3	0.08455982
110	0x3d9ac324	0.07556751
111	0x3db771dc	0.08957264
112	0x3d92def7	0.071714334
113	0x3d0ccaa0	0.034372926
114	0x3d256659	0.04038081
115	0xbd86d4de	-0.0658357
116	0xbd8eba2d	-0.06969104
117	0x3c92b242	0.017907266
118	0xbc942a94	-0.01808671
119	0xbde61f19	-0.112364
120	0x3e28fe4f	0.16503261
121	0x3c215dfa	0.009849066
122	0x3db67b30	0.08910215
123	0xbdfbbe52	-0.1229216
124	0x3d5c8e1a	0.053846456
125	0xbdd3b819	-0.10337848
126	0x3f013feb	0.50488156
127	0xbf061191	-0.52370554
128	0xbdb1992d	-0.08671794
129	0xbe2b9f69	-0.16760029
130	0xbd8430ac	-0.06454596
131	0x3e646c09	0.22306837
132	0x3db0b6b5	0.086285986
133	0x3c14c838	0.009080939
134	0xbe2e82a2	-0.1704202
135	0x3cb2b583	0.021815067
136	0x3e57e425	0.21083124
137	0xbccf825d	-0.025330717
138	0xbda63baa	-0.08116849
139	0xbb73ce8c	-0.003720197
140	0xbdb4e5ac	-0.08832869
141	0x3c55f935	0.013059904
142	0xbd5b5a4c	-0.05355291
143	0x3e320f2a	0.17388597
144	0xbddcc314	-0.10779396
145	0x3e2dcdbd	0.16973014
146	0x3e0b9ac7	0.13633262
147	0x3dc984b5	0.09839765
148	0x3e491d91	0.19640185
149	0xbd5e97a7	-0.054343846
150	0x3e133f03	0.14379506
151	0x3dc691a1	0.09695745
152	0xbd8794dc	-0.066201895
153	0x3e23ed33	0.16008453
154	0xba7e577d	-0.0009702368
155	0x3e026349	0.12733187
156	0xbd0d52ad	-0.034502674
157	0xbe30c092	-0.1726096
158	0xbe7a4ccc	-0.24443358
159	0x3e84ca77	0.25935718
160	0x3b977da8	0.0046231337
161	0x3da42c23	0.08016231
162	0xbe3f55c9	-0.18685068
163	0x3dde8412	0.10865034
164	0x3d8c7977	0.06859105
165	0x3ccc5d1a	0.024946738
166	0x3e2387e7	0.15969811
167	0x3e18b52b	0.1491286
168	0x3e0fe0ec	0.14050645
169	0x3e1ddfef	0.15417455
170	0xbd3898ad	-0.045067478
171	0xbdc80052	-0.09765686
172	0x3d9d40c3	0.07678368
173	0x3cfefd53	0.031126654
174	0x3de8c9c6	0.1136661
175	0x3dbef106	0.09323315
176	0xbcf78ec1	-0.030219438
177	0xbd9155bd	-0.070964314
178	0x3e1c43a0	0.15260172
179	0xbe1c277b	-0.15249436
180	0x3e1a4a96	0.15067515
181	0x3e486451	0.19569518
182	0x3e34c42d	0.1765296
183	0x3dcd6588	0.10029131
184	0x3d92fdcf	0.071773164
185	0xbdd19ec0	-0.10235357
186	0x3e1d34d7	0.15352188
187	0x3e05919b	0.13043825
188	0x3d8c07a7	0.06837397
189	0xbdd79461	-0.10526348
190	0xbd761273	-0.06007619
191	0x3ea4fd30	0.32224417
192	0x3d887db2	0.066645995
193	0x3d1b17f0	0.037864625
194	0x3ad3b979	0.0016153298
195	0x3e6e167a	0.23250762
196	0x3ea34acc	0.31893003
197	0x3dc70ce6	0.09719257
198	0xbd5813e0	-0.05275333
199	0xbdedda9d	-0.11613963
200	0xbd6da459	-0.058018062
201	0x3df0c9da	0.1175725
202	0xbdc90bc3	-0.098166965
203	0xbc0b60f6	-0.008507004
204	0xbe521195	-0.2051452
205	0x3e06977d	0.13143726
206	0xbe0bbb28	-0.13645613
207	0xbe0a23da	-0.13490239
208	0x3d513ba6	0.051082276
209	0xbda17db4	-0.07885304
210	0xbe06e64c	-0.13173789
211	0x3d824255	0.06360308
212	0xbc9d2ef7	-0.019187434
213	0xbe4de068	-0.20105135
214	0x3d067d35	0.03283425
215	0xbd2df070	-0.042465627
216	0x3d4b5537	0.049641814
217	0xbe032f5b	-0.12811033
218	0xbe054a42	-0.13016608
219	0xbda0a038	-0.07843059
220	0x3dbd5f98	0.09246749
221	0xbe1ac8c6	-0.15115651
222	0xbf05bea4	-0.5224402
223	0x3eaa8b8c	0.3330959
224	0xbeb9835d	-0.36233035
225	0xbe458c5b	-0.19291823
226	0x3e792a12	0.24332455
227	0xbc6821fa	-0.014168257
228	0xbd98bc35	-0.07457773
229	0xbc5b6603	-0.013391021
230	0x3d6d471d	0.057929147
231	0x3ddfdcbf	0.10930776
232	0xbcf22201	-0.02955723
233	0xbdcf2185	-0.10113815
234	0xbdc1211d	-0.09430144
235	0xbde0f9d0	-0.10985148
236	0x3e1949ba	0.1496953
237	0x3e6f672b	0.23379199
238	0xbd9fa374	-0.07794848
239	0x3dc36598	0.09540862
240	0x3d0c3d67	0.034238245
241	0x3d94fb3d	0.072744824
242	0xbdfbebcd	-0.12300835
243	0x3d90c17b	0.070681535
244	0x3d10228a	0.03518919
245	0xbcd88e9f	-0.026435195
246	0xbe2e1598	-0.17000425
247	0x3d0ff684	0.035147205
248	0x3e392612	0.18080929
249	0xbd9ad453	-0.07560029
250	0xbd1aadae	-0.03776329
251	0x3e1581fa	0.14600363
252	0xbdaaf087	-0.08346658
253	0xbe246d89	-0.1605741
254	0x3ea61d73	0.32444343
255	0xbe5f5e45	-0.21813305

q_net.fcs.0.bias f4 [128]
0	0xbd61c902	-0.055123337
1	0x3d0f83db	0.035037857
2	0xbd14d3de	-0.036334865
3	0x3be1a32c	0.0068859067
4	0x3e705dda	0.23473302
5	0x3e26fdc1	0.16307737
6	0x3da64e9b	0.081204616
7	0xbe39982b	-0.18124454
8	0xbdbc138b	-0.09183415
9	0xbb92180b	-0.0044584326
10	0xbcfa2bf4	-0.030538537
11	0x3d656b5e	0.056010596
12	0x3e270534	0.16310579
13	0x3c74d010	0.014942184
14	0x3dcd0f53	0.100126885
15	0xbe0f090b	-0.13968293
16	0x3e07351a	0.1320385
17	0xbde9822f	-0.11401784
18	0xbe1b19cb	-0.15146558
19	0x3e188591	0.14894702
20	0xbd476644	-0.048681512
21	0x3e5f2096	0.21789774
22	0x3c99ed8c	0.018790029
23	0xbdb0096b	-0.08595546
24	0x3e361f54	0.17785388
25	0xbe0b1e12	-0.1358569
26	0x3d971c16	0.07378404
27	0x3d4d6fa0	0.050155282
28	0xbd919075	-0.07107631
29	0x3e0622cb	0.1309921
30	0xbd58ad63	-0.05289973
31	0xbdfddabd	-0.12395237
32	0x3de6e97a	0.11275001
33	0xbd67c09a	-0.056580164
34	0xbdd683b4	-0.10474339
35	0x3d40e042	0.04708887
36	0x3e1a39bd	0.15061088
37	0xbd0944e6	-0.033512972
38	0x3d991427	0.07474547
39	0x3d5a3b49	0.053279195
40	0xbdd54669	-0.1041382
41	0xbe2469d0	-0.1605599
42	0x3daf4345	0.085577525
43	0x3db03969	0.086047
44	0xbda60ba7	-0.08107691
45	0x3c4de431	0.012566612
46	0xbc7a6e3e	-0.015285073
47	0x3e4601ec	0.1933667
48	0x3dcdfc2a	0.10057862
49	0xbce1fbd7	-0.027585907
50	0xbdb6bc4a	-0.08922632
51	0xbdbb1a12	-0.09135832
52	0x3e71634b	0.23573034
53	0x3b6704ee	0.003525074
54	0x3d91aea4	0.07113388
55	0xbd02007a	-0.031738736
56	0xbb043be9	-0.002017731
57	0x3e1c235e	0.15247867
58	0x3e483518	0.19551504
59	0x3e2faeca	0.1715652
60	0x3e295700	0.16537094
61	0xbdf8047c	-0.1211023
62	0xbdb10099	-0.08642692
63	0x3e334147	0.1750537
64	0xbe1cfdfe	-0.15331265
65	0x3dbbb5ce	0.09165536
66	0x3dd04565	0.10169486
67	0xbe048516	-0.12941393
68	0x3db644ee	0.08899866
69	0xbda3a6b9	-0.07990784
70	0xbcf20247	-0.029542102
71	0xbdd93a63	-0.106068395
72	0x3df954af	0.12174355
73	0xbe146580	-0.14491844
74	0xbc9ce6e2	-0.019153062
75	0x3e2db474	0.16963369
76	0xbe2b560f	-0.16732047
77	0x3e579ca1	0.21055843
78	0xbe167b61	-0.14695503
79	0xbc8f7222	-0.017510477
80	0x3cdaff2a	0.026733
81	0xbdfa67e8	-0.1222685
82	0x3e14e86f	0.14541791
83	0xbb6e7a40	-0.0036388785
84	0xbd72b503	-0.059254657
85	0x3ddf03f2	0.108894244
86	0xbdf462c6	-0.11932902
87	0x3d88535d	0.06656525
88	0x3c1426f0	0.009042487
89	0xbd9915be	-0.0747485
90	0xbd82eaf0	-0.06392467
91	0x3e061132	0.13092497
92	0x3d4e3430	0.05034274
93	0x3e0ca75a	0.13735715
94	0x3e4c6edc	0.19964164
95	0xbe06139d	-0.1309342
96	0x3e00da84	0.12583357
97	0x3cb6904b	0.022285601
98	0x3c4eb9df	0.012617557
99	0xbd4a4102	-0.049378403
100	0x3db9b6d9	0.090680785
101	0xbe024e05	-0.12725075
102	0x3e0adc98	0.13560712
103	0xbc45206b	-0.012031655
104	0x3de1be79	0.11022658
105	0xbe8591f9	-0.2608793
106	0xbdee4c80	-0.11635685
107	0x3e659489	0.22419943
108	0x3e2b60de	0.1673617
109	0xbd20ee4d	-0.03928976
110	0xbd9f5ddd	-0.07781575
111	0xbe00e0b8	-0.12585723
112	0xbe10d43b	-0.1414346
113	0x3e01c411	0.1267245
114	0xbd1ea605	-0.038732547
115	0xbe22752d	-0.15865012
116	0x3a49af08	0.0007693623
117	0xbcd0d6ce	-0.025493052
118	0x3d025359	0.031817768
119	0x3ce9d387	0.028543247
120	0xbe3009bd	-0.17191215
121	0xbdf9040f	-0.12158977
122	0x3e7684d8	0.24074113
123	0xbe1297d8	-0.14315736
124	0xbdff0491	-0.12452043
125	0xbd979654	-0.0740172
126	0x3e51e135	0.20496066
127	0xbce9d83e	-0.028545495
