RL_Model/LC_SAC_2D/lcsac_model_final_circle.pth (torch, 951016 bytes, 64 tensors)

net.fcs.0.weight f4 [128, 30]
000000 a4 b4 7f bb cd d3 b4 3d fd e5 f2 be 64 60 bc be
       -0.0039017582 0.0882946 -0.47441092 -0.3679229
000010 8d 00 28 3e 69 15 1d 3e bf 3a 23 3c 31 87 b6 bd
       0.1640646 0.15340199 0.009962737 -0.089125045
000020 9b 55 e0 3a fe 81 9c bc 5e 33 11 be 65 36 85 bd
       0.0017115356 -0.019104954 -0.14179751 -0.065045156
000030 d0 9f 3d bd b1 28 e1 bd f4 d0 7c ba fb a8 92 3c
       -0.046294987 -0.109940894 -0.00096441736 0.017902842
000040 0b f9 7a bd 20 dd 0b bd c1 35 fd 3c 8a 02 95 bd
       -0.061272662 -0.034146428 0.03090942 -0.07275875
000050 ee d9 c5 bd f8 86 72 bd 12 41 16 be 9d 7a 0a be
       -0.096607074 -0.059210747 -0.1467326 -0.13523336
000060 33 0c 65 3e 24 3e ff bd 6e 66 aa 3d 0a 51 2c 3e
       0.22367935 -0.12463024 0.08320318 0.16827789
000070 de ef be bd 53 f1 c7 3d 2d 16 cb 3d 48 27 d8 bd
       -0.09323095 0.09762826 0.09916339 -0.10554367
000080 ef eb b9 3e 56 9c 6c 3e 12 0e 52 be 26 f6 97 bd
       0.36312816 0.23106512 -0.2051318 -0.07419996
000090 57 66 b3 3d 08 56 d5 3c 00 ac 89 3c 5f 1c 8a bd
       0.08759754 0.026042 0.016805649 -0.067436926
0000a0 a9 1c 2b bb be 1a c0 3d ca ad 29 be 03 a0 12 3c
       -0.0026109612 0.09380101 -0.16570202 0.008949283
0000b0 0c 9c be 3d da e2 dd 3d 15 fe c4 bd 7b 80 f9 3d
       0.09307107 0.10834284 -0.09618775 0.12182709
0000c0 47 20 10 3e a0 e3 79 3e 2b 4b 81 bd 64 8d 1e 3d
       0.14074813 0.24403238 -0.06313165 0.03870906
0000d0 2a dd ec bd 83 15 0c be 36 40 3c be b9 9f b1 3e
       -0.11565621 -0.13680081 -0.1838387 0.3469217
0000e0 52 8f 56 be 77 82 1d be b5 a9 29 be e7 fb 41 bd
       -0.2095311 -0.153818 -0.16568644 -0.047359373
0000f0 dd f4 8d bd 96 ff a7 be 0c df 4b bd c6 75 0a bf
       -0.069314696 -0.32812184 -0.04977326 -0.5408596
000100 36 00 85 be c6 ed c2 bd 6d 2f 0d 3e 16 4a 9b bd
       -0.25976723 -0.09518008 0.13787623 -0.0758249
000110 f9 aa 64 be f0 45 e4 3b f4 d5 33 bd fe f2 ef 3d
       -0.22330846 0.006966345 -0.043905213 0.11716269
000120 ac a4 cf bc 98 b0 55 3c 90 5d 0a be 1e 1d cc bd
       -0.025347076 0.0130425915 -0.13512254 -0.09966491
000130 86 5a bb 3d 1f 44 29 3e 0b e2 2f 3e 81 9d fa bc
       0.09148125 0.16529892 0.17176072 -0.030592682
000140 81 12 1a ba de d4 ad bd 20 c2 c3 3d 53 08 36 be
       -0.0005877391 -0.08487867 0.09558511 -0.17776613
000150 59 6a 51 3d 8f c7 c0 3c 79 dd b4 bd 0e 8b 15 3e
       0.05112681 0.023532657 -0.08831305 0.14603826
000160 47 a5 7e 3d 6e 16 93 bd 65 68 e6 3a 29 50 21 3e
       0.06216934 -0.071820125 0.0017578719 0.15753235
000170 89 94 2e 3e 64 04 b8 3e 20 a2 6c bd 1a 02 20 3d
       0.17048849 0.3594085 -0.057771802 0.039064504
000180 1f 07 0e 3e 83 fc 2a 3e 0b b4 13 3e 2b c1 b8 bd
       0.13869904 0.16697888 0.1442415 -0.09021219
000190 88 4f 5a 3d 42 f8 23 3e 1d bb f7 bd 70 d8 ac bd
       0.053298503 0.16012672 -0.12096236 -0.0843972
0001a0 93 87 18 3d 6e 46 17 3d 65 1b b3 bd 1e 81 0c be
       0.03723867 0.0369324 -0.087454595 -0.1372113
0001b0 e9 f2 80 bd ac 1f 8c bd b7 75 dc 3b a2 e7 96 3d
       -0.062963314 -0.068419784 0.0067279 0.07368399
0001c0 9a 71 7c 3c 3c b8 60 bd fc 25 10 be 4e b9 1b 3d
       0.015407944 -0.0548632 -0.1407699 0.038018517
0001d0 5f a5 ae 3d 7f a2 5c 3d e6 44 a9 3d 57 c9 e3 bd
       0.08527636 0.053865906 0.082650945 -0.11122387
0001e0 44 94 7d be bf d7 86 be e1 27 a5 bd c5 54 62 3d
       -0.2476359 -0.26336476 -0.08064247 0.055256624
0001f0 ab be 8b be 89 f2 a4 3d 61 1c 5a 3c 17 4e 81 bd
       -0.27293906 0.080540724 0.01331243 -0.063137226
000200 ce 68 0e 3d 67 7e 87 3d 15 ba ff 3c cb af 03 be
       0.03476792 0.06615906 0.03121666 -0.12860028
000210 28 35 31 bd 69 7a 84 bd 84 50 d8 bd f7 f9 1f be
       -0.043263584 -0.064686604 -0.10562232 -0.15622698
000220 60 d3 54 bd f0 45 3f 3d 24 fb 26 be f6 13 00 3e
       -0.051959395 0.046697557 -0.1630674 0.12507614
000230 be 27 56 3d d2 9b 29 bc a5 b5 08 bc c8 9a a7 bd
       0.052283995 -0.010352092 -0.008344089 -0.08183819
000240 0a 31 27 3d 6c ff 18 bd d2 0b c8 bd 68 2d c9 3d
       0.04081825 -0.037352964 -0.097678795 0.09823114
000250 d0 86 00 bd e1 59 01 be 0d 48 9b 3c 12 0d c3 bd
       -0.031378567 -0.12631942 0.018955255 -0.09523977
000260 c5 26 46 bc 85 69 ca be d1 8c 8a 3d 61 e8 0a bd
       -0.012094204 -0.3953363 0.0676514 -0.03391302
000270 9e 45 3a bd e2 b1 b5 bc d4 0a 01 3d 27 d4 dd 3d
       -0.04547655 -0.022179548 0.031504467 0.108314805
000280 39 e2 9c bd b2 12 2c be 24 f4 11 bd b0 c9 bb 3d
       -0.07660336 -0.16804007 -0.03563322 0.09169328
000290 c2 18 43 be 88 f6 06 be d5 49 03 3d 0a 64 09 be
       -0.19052413 -0.13179982 0.032052834 -0.13417068
0002a0 f9 29 88 3d 8d 8e 9a 3d c1 ba 93 bd cb a9 ec 3c
       0.06648631 0.07546721 -0.07213355 0.028889557
0002b0 02 19 79 3d aa 6b 2e bd 40 69 48 3d 44 10 bb bd
       0.060814865 -0.042583145 0.0489285 -0.09133962
0002c0 6a 9f a0 3d b4 23 56 bd dc 35 fa bd 6f 36 fb bd
       0.07842906 -0.052280143 -0.12217304 -0.12266242
0002d0 60 a8 5b bc 1c ea 2d be 64 56 92 bd df d7 d1 3d
       -0.013406843 -0.16983837 -0.07145384 0.10246252
0002e0 07 2e 82 3c 1e 3c a5 bc 2a ee e5 bd 16 ae d0 bd
       0.015891088 -0.020170268 -0.11227067 -0.10189454
0002f0 61 7c 04 be bb 79 49 be 6d ac 39 3e 6b ea a4 bd
       -0.12938072 -0.19675343 0.18132181 -0.08052524
000300 79 bf 0e be 4b fd ec bd 2d 65 f8 bd 7d b2 93 3b
       -0.13940229 -0.11571749 -0.12128673 0.0045073614
000310 d4 1a 11 be dc 6b ca bd c4 5a 13 3d 4f 41 18 bd
       -0.1417039 -0.09883854 0.035975233 -0.037171658
000320 25 42 85 3d da 91 a6 bd 4d d1 fe bd 3a e3 bf 3d
       0.06506757 -0.08133288 -0.12442265 0.09369512
000330 0f 05 02 be 0d 83 18 be 79 b4 f4 bd 1d f3 a0 bd
       -0.12697242 -0.14893742 -0.11948485 -0.0785887
000340 a4 07 39 3e 3f 3e a6 3d a8 7b d5 bc 40 d4 9a 3c
       0.18069321 0.08117341 -0.02605994 0.018900037
000350 82 7a 7a bd dd 1e 04 3c 8d 08 04 3e 74 70 f1 3d
       -0.06115199 0.008063999 0.12893887 0.11789027
000360 53 29 02 bd 13 77 10 3e 48 36 8d 3c 1a 9f fa 3d
       -0.03177769 0.14107923 0.017237797 0.122373775
000370 67 00 66 bd f3 e4 24 3e 6b 19 b5 3d 8d 58 86 bd
       -0.056152727 0.16102962 0.08842739 -0.065598585
000380 10 c2 66 bc e3 12 02 be 98 e8 11 3e f4 d1 12 3d
       -0.014084354 -0.12702517 0.14248884 0.03584476
000390 e3 64 b2 bd ad 8a ba 3d fc fb b7 3d 87 98 9a 3d
       -0.08710649 0.091084816 0.08983609 0.075486235
0003a0 53 d3 9d bd 7a f5 30 be b0 fa e3 3c a7 29 1e 3d
       -0.077063225 -0.17281142 0.027829498 0.03861394
0003b0 21 01 02 bd 1e a2 03 3e 89 09 0c bd 68 d5 30 3d
       -0.031739358 0.12854812 -0.03418878 0.04317227
0003c0 60 40 5b bd 19 fd f8 3c c7 3e a0 3e ab 24 9a 3e
       -0.05352819 0.030394124 0.31297895 0.301061
0003d0 f3 a7 12 be bc 37 3a bd 07 23 a1 bd b0 91 e9 3c
       -0.1432188 -0.04546331 -0.07868009 0.028511852
0003e0 27 b9 b7 bd be 38 94 bb 0e 74 40 bd 52 68 1f be
       -0.08970862 -0.0045233658 -0.04698568 -0.15567139
0003f0 a1 ff 80 3d a0 33 ff 3d 92 9a 30 be fc 9a a2 bd
       0.06298757 0.124610186 -0.17246464 -0.07939717

net.fcs.0.bias f4 [128]
000000 e2 3a 06 be 29 78 8c 3d 5d 10 34 be 5f f0 d9 bd
       -0.131084 0.06858856 -0.17584367 -0.1064155
000010 17 6e 23 be f7 0a 66 be b4 9b c0 bd 00 1f 1f 3e
       -0.15959965 -0.2246512 -0.09404698 0.1553917
000020 8f 01 e0 3c 32 ce 09 3e 45 e3 ea bd 3c 8f 72 3c
       0.027344493 0.13457564 -0.114691295 0.014804658
000030 2d 00 94 bc 45 c6 8c be 2f 94 9c 3d 23 25 56 3e
       -0.01806649 -0.27495018 0.07645451 0.20912604
000040 4e 90 8c bc 5e bb 1c 3d 7d 68 f3 3d d4 07 0f bd
       -0.017158654 0.038264625 0.11885164 -0.034919575
000050 56 b9 f6 3d bf 37 24 be 4b c6 48 bd ee 86 47 be
       0.12047069 -0.1603689 -0.049017232 -0.19485065
000060 7f f3 f4 bd 0a f9 97 bd 87 0a a3 be 5d 49 0a 3d
       -0.11960506 -0.07420547 -0.3184397 0.03376137
000070 d0 94 71 3d 59 80 5a bd 13 2e 0f be 1e 44 1b be
       0.05897981 -0.053345058 -0.1398242 -0.15162703
000080 49 04 98 bd 02 b4 27 be 28 4e 97 3c f6 79 db bc
       -0.07422692 -0.16377261 0.018469885 -0.026791554
000090 f5 0e 81 3d bb 4f 55 be ce ab db 3d d9 8d 33 bd
       0.06301681 -0.20831196 0.107261285 -0.04383645
0000a0 68 04 79 be 66 89 ab bd 49 1b cf bd 15 28 48 bd
       -0.24318087 -0.08375816 -0.10112626 -0.04886635
0000b0 f1 cd 01 be e3 a3 48 bc b3 61 a2 3d 6f 56 5e be
       -0.12676217 -0.012246105 0.07928791 -0.2171266
0000c0 7c cb ca bd 0e 7f c8 3d 48 ee 24 3e 94 60 1a be
       -0.09902093 0.09789859 0.16106522 -0.15075904
0000d0 49 4c 02 3d 8b e9 3d be 49 1d 46 be 1a eb ac bd
       0.031811032 -0.18546121 -0.19347109 -0.084432796
0000e0 f3 a5 f8 bd a7 19 9f bd 1f ec 29 3d b8 fa 02 be
       -0.12141027 -0.07768565 0.04148495 -0.12790954
0000f0 65 3c 59 3d a1 de 3b 3d 07 d8 04 3c 51 20 24 be
       0.053036112 0.045866612 0.008108146 -0.16027953
000100 89 f2 15 be 5e d4 a6 bc b1 8d 47 be d8 f2 2b be
       -0.14643301 -0.020364936 -0.19487645 -0.16791856
000110 33 9b 0b 3e 07 ed 26 3e 9f e6 0d 3b 65 0c 5a be
       0.13633423 0.16301356 0.0021652353 -0.2129379
000120 31 b3 97 bd 1f 52 96 bc 86 6a 0d be 6f 23 12 bf
       -0.07407225 -0.018349705 -0.13810167 -0.5708532
000130 7f 35 19 bd 3d 80 ef 3d 92 57 84 be 17 2f 1e 3e
       -0.037404533 0.116943814 -0.2584806 0.15447651
000140 97 14 05 be 2c f1 ab 3d b8 a3 3e bc f5 da 63 bd
       -0.12996136 0.08395609 -0.011635713 -0.055628736
000150 e5 f3 41 be 1c 91 db bd c3 a6 21 be 0c 97 b1 3d
       -0.18940695 -0.10721037 -0.15786271 0.08671388
000160 89 b5 3d bd cd 89 c2 3d 21 a5 4f 3e 9c 01 bb 3d
       -0.046315704 0.0949894 0.20277835 0.09131166
000170 b9 fc 0e be 0d 75 5a be 33 60 c9 bd aa 51 53 3d
       -0.13963594 -0.21333714 -0.09832802 0.051591553
000180 52 92 39 3d 69 83 51 3d bb 27 2f 3d 5d 60 f5 3c
       0.045305558 0.051150713 0.0427625 0.029953176
000190 ec de d8 bd 89 fb 2c be 01 63 38 be d2 df 01 be
       -0.10589394 -0.16892828 -0.18006517 -0.12683037
0001a0 f5 9d 20 be 9c 0c 43 bd e0 02 d8 3d 11 dd 4e be
       -0.15685256 -0.047619447 0.10547423 -0.20201518
0001b0 ed 28 3a be 6e 0f 32 be 63 da e2 3d 70 e6 a5 bd
       -0.18179674 -0.17388698 0.1107681 -0.08100593
0001c0 bb 48 1a be 6b 6e 47 3d a8 62 a0 3d e8 e5 44 bd
       -0.15066807 0.048689287 0.07831317 -0.04807082
0001d0 9c 03 02 be 4c 34 b4 bd b1 66 ef 3d c8 59 7d 3d
       -0.1269669 -0.08799037 0.11689509 0.0618532
0001e0 56 df 9d bc 74 e9 92 be ca 19 46 be 22 48 2c be
       -0.019271534 -0.28693736 -0.19345775 -0.16824391
0001f0 3d 60 e1 bd 30 a4 3c be 3e 93 12 bd ae c2 c0 bd
       -0.11004684 -0.18422008 -0.035784952 -0.09412132

net.fcs.1.weight f4 [128, 128]
000000 06 a0 48 bc 08 d0 89 bd 06 d6 8f be cc 92 8f bd
       -0.012245184 -0.06729132 -0.28092974 -0.07010421
000010 d9 d9 a3 bc 19 e3 52 bd 23 1e 82 be 04 6a 44 3d
       -0.020001339 -0.05148611 -0.25413617 0.047952667
000020 e5 57 b2 be 9f 7d 82 bd e1 3b 2e 3d 15 0d ee bd
       -0.34832683 -0.063716166 0.042537574 -0.11623589
000030 78 62 38 3d 18 67 f7 3d 68 15 03 be 6e 7d d0 3d
       0.045015782 0.120802104 -0.12801135 0.10180174
000040 7d ff ae 3d 69 ec 02 be f7 41 60 3d 76 a4 ae 3d
       0.08544824 -0.12785496 0.05475041 0.08527462
000050 23 d8 45 3d 23 14 7e bd 06 9f 36 be 30 97 e1 be
       0.048301827 -0.062030923 -0.178341 -0.4406066
000060 65 f7 21 3d 9c f7 12 be 21 35 26 3e 9a 05 19 3e
       0.039542574 -0.14352268 0.16231205 0.14943543
000070 6e 69 b8 bc c6 14 79 bd dd 4d 14 bc 74 ab 80 3d
       -0.02251121 -0.060810827 -0.009051767 0.06282702
000080 4c 73 70 3d 45 41 3e 3d fa 7e 19 be dd ab 15 bc
       0.058703706 0.046448965 -0.14989844 -0.009135214
000090 8b c3 fb 3a dc 0d 87 3d 28 db 46 3d 43 54 4c bc
       0.0019208057 0.0659444 0.048548847 -0.012471261
0000a0 c7 78 20 3d 20 16 52 bd 10 5a 97 bd 5c 44 83 3c
       0.039177682 -0.05129063 -0.07390225 0.016023807
0000b0 ca 29 1d be 70 8a 48 3d 00 69 ba bd d6 08 8d 3e
       -0.15347973 0.04896015 -0.091020584 0.27545804
0000c0 81 5e 0b be 06 7a 7f be b0 ae 41 3d 15 cf b2 bd
       -0.13610269 -0.24948892 0.047285736 -0.08730904
0000d0 68 68 25 bc 53 28 78 bd 0e 7a b2 bd df 2b d0 3c
       -0.010095693 -0.06058533 -0.08714686 0.025411544
0000e0 90 b5 b4 3d b0 aa 7f 3d 78 47 81 3d cb 2a fe be
       0.08823693 0.06241864 0.0631246 -0.49642023
0000f0 fa b9 be 3d 13 9e 3a bd 67 3c 9a bd 8c f0 96 bd
       0.09312816 -0.045560908 -0.07531052 -0.073700994
000100 0c 75 70 3c 8d 60 44 3a 00 7f 7f 3d ef ad 24 3b
       0.014676344 0.0007491194 0.062376976 0.0025128087
000110 93 bb 4f bd 0e f1 2e 3e 4e 9b a9 3c e6 b6 0e bc
       -0.050715994 0.17084143 0.020703938 -0.008710599
000120 76 65 68 bd 56 5f b6 bc 58 be 31 3b 95 48 b6 be
       -0.056737386 -0.022262257 0.002712151 -0.3560225
000130 34 7f cf 3d a4 2a 55 bd b0 48 9a bc 35 f8 a0 bd
       0.10131684 -0.05204262 -0.018833488 -0.07859842
000140 2c 7a 02 3d 29 e7 82 3d fc 4e e4 3b 73 b7 c6 bd
       0.031854793 0.063917466 0.0069674235 -0.09702959
000150 be a9 b7 3c 4e bd db bd 00 62 ff bd 1e 19 be 3d
       0.022419807 -0.107294664 -0.12469864 0.092821345
000160 dd 72 cc 3d 95 e2 d4 bd cc 3f 0a bc cf 8b 0c bd
       0.09982846 -0.103947796 -0.008438062 -0.03431302
000170 4a 27 fa bd c5 56 06 3e da 92 86 3d d9 2e 9b bd
       -0.12214525 0.13119037 0.065709785 -0.07577295
000180 ca d0 15 3d 1e 7f 51 bd 36 12 26 bd e7 86 97 3d
       0.03657607 -0.05114662 -0.04054471 0.073987775
000190 f3 c8 85 bd 00 fb 82 3e 47 59 23 3c 03 ec 12 3e
       -0.06532469 0.25582123 0.009970016 0.14347844
0001a0 38 3b 2d bd b6 da 29 3d c5 fd 1a 3d e0 94 66 3e
       -0.042292804 0.041468345 0.03783967 0.22517729
0001b0 43 19 80 bd 7d 4f 82 3d ab b1 2e 3e 87 ed 6d 3d
       -0.06254818 0.063628174 0.17059962 0.05808785
0001c0 86 59 4c 3e 4f d8 35 3d 58 a9 8e bd cd e0 a0 3d
       0.19956025 0.04439574 -0.069658935 0.07855377
0001d0 8d e8 1a bd 4e d2 07 bd 87 4b c5 3d 87 12 0e bd
       -0.037819434 -0.033159547 0.09633546 -0.034685638
0001e0 0b 75 a2 3d 2b 4c 44 3e b6 0d 46 3d ca a4 96 3d
       0.079324804 0.19169681 0.04835292 0.0735565
0001f0 bb e0 de bd 04 e3 22 3e e0 01 27 3d db d2 ad bd
       -0.10882708 0.15906912 0.040773273 -0.08487483
000200 5e 0b 4b 3e a6 9d 1b bd 5d 62 30 bf 88 ba f7 3b
       0.19828555 -0.037992142 -0.6890009 0.007560078
000210 fe 4e b9 bc d4 00 04 bd bd a6 1d 3d 77 e1 97 3c
       -0.022620674 -0.032227352 0.038489092 0.018540127
000220 c4 78 2b bd 65 bb af 3c e8 50 99 3c d1 df 44 3d
       -0.041863218 0.021451661 0.018715337 0.04806501
000230 0d 53 42 3d dd 8c c2 bc f4 fa 05 bd a2 83 14 3d
       0.047442485 -0.02374881 -0.03271003 0.036258347
000240 4a 6b 90 bd 05 dd b8 bd 75 de b1 bd 65 6a 32 bd
       -0.07051714 -0.09026531 -0.086850084 -0.043558497
000250 eb e1 5d 3c 0b a1 4c 3d 72 43 44 3d 84 04 f6 be
       0.013542633 0.04995827 0.047915883 -0.4805032
000260 c5 99 77 3d 61 f5 f5 bc f8 62 4a 3f c9 56 f0 3d
       0.06044938 -0.030024232 0.79057264 0.11735303
000270 9e 33 99 3b b2 d5 3b 3d 1e 2c 0a 3d 5b 4e 6f 3d
       0.0046753427 0.045858093 0.03373348 0.058424335
000280 16 da 6e bc db e2 6f bc 88 97 1a bd 73 e1 2e bd
       -0.014578363 -0.014641489 -0.037742168 -0.042695474
000290 28 9c cf 3c c0 47 81 3e 49 0b 9c bc 3b 77 86 bd
       0.025343016 0.25250053 -0.01904835 -0.0656571
0002a0 1b 51 09 be 50 c6 a1 3d b6 32 26 bd 62 cd 4e bd
       -0.13409846 0.07899153 -0.040575705 -0.050488837
0002b0 22 9e 82 bd 87 1e 8d 3d 50 41 95 3c 76 cd 17 3e
       -0.06377818 0.06890588 0.01821962 0.14824471
0002c0 56 7e 1d be 18 2a f9 bd 5a f6 99 3d 44 56 13 bd
       -0.15380225 -0.12166232 0.07517691 -0.03597094
0002d0 b6 b5 c7 3c 46 f0 a6 3b fc cb e0 3c 0c 4e 27 bc
       0.024378639 0.005094561 0.027441017 -0.010211479
0002e0 7d cd 6a bd b9 b8 99 bd cd 43 32 bd 39 fc 94 bd
       -0.057324875 -0.07505936 -0.04352169 -0.0727467
0002f0 9d 17 1e bd 13 72 6e bd de 4b 77 3d 79 51 ba 3c
       -0.038596738 -0.05821426 0.060375087 0.022743927
000300 bf 8c 0e 3c fb 19 04 bd 72 bb 6a bd 12 c1 f3 3c
       0.008700549 -0.03225134 -0.057307668 0.029755149
000310 cf a6 6b bd d5 0e 43 3d 56 94 89 bd 30 0a 62 3e
       -0.057532128 0.047621567 -0.06717746 0.22074199
000320 51 94 29 bd 50 81 b7 3c 79 f2 9b 3a a2 62 58 bf
       -0.04140121 0.022400528 0.0011897824 -0.845255
000330 5d aa 51 3d 64 e1 a3 3b 49 a1 c5 bd 76 51 9e bd
       0.05118786 0.005001234 -0.09649903 -0.07730381
000340 78 cd b3 bc cd 4e 04 3d 84 21 14 3d a9 ed 2e bd
       -0.021948561 0.032301713 0.036164775 -0.04270712
000350 2d 81 00 3d 05 bb a0 bd 67 82 0d 3d 0e 27 8a bc
       0.03137319 -0.07848171 0.03454819 -0.016864326
000360 f6 a0 9d 3d 6c 89 6e bd 6b eb b6 3d ab ce 9e 3c
       0.076967165 -0.058236524 0.08931621 0.019385656
000370 d5 2f 73 bc 04 7a 55 bd b5 58 91 bd 30 f3 7c 3d
       -0.014842947 -0.052118316 -0.07096998 0.06175536
000380 5e d7 3b bc 1f 11 ad ba 8f 03 51 3d a4 13 a9 3d
       -0.011464922 -0.0013203955 0.051028784 0.08255699
000390 43 10 79 bd 33 86 db bc c1 9c df 3a 6c 1f 1a bd
       -0.060806524 -0.02679739 0.0017060266 -0.037627622
0003a0 0c c4 14 3c f9 4a 99 bd d6 d9 95 3d 9d e0 97 3e
       0.009079944 -0.07485003 0.073169395 0.29663554
0003b0 26 97 a9 bd 70 9e 96 bd 32 b8 e1 3c 3d d8 14 bd
       -0.082807824 -0.07354438 0.027553651 -0.036339033
0003c0 2a c6 8c 3d 59 d3 0b bd ef c9 dd 39 a7 19 b4 bc
       0.06873734 -0.034137104 0.00042302857 -0.021984888
0003d0 be 3f 5d bc 86 29 3c bd 76 ec 2c 3d 4b b2 c7 bc
       -0.013503967 -0.045938037 0.042217694 -0.024377009
0003e0 df 23 15 bd a3 13 52 3f 09 72 22 bd 7c 12 80 bc
       -0.036411162 0.82061213 -0.039659534 -0.015633814
0003f0 67 d0 8e 3d ab 37 32 bd 83 2d 87 3a e9 24 68 bd
       0.06973343 -0.04351012 0.0010313246 -0.056675825

net.fcs.1.bias f4 [128]
000000 60 11 2f 3d 9a de a4 3d d4 ea de 3c 87 c0 10 bd
       0.04274118 0.080502704 0.027211584 -0.03533986
000010 02 33 7d 3c 5b 8c 49 3d 3c b4 e6 bd a3 1f 8f bd
       0.015454056 0.04920612 -0.11264846 -0.06988456
000020 0c 5c d8 3c b7 65 07 3e 94 23 94 bd c2 2c da bc
       0.026411079 0.13222395 -0.072333485 -0.02663267
000030 3c d3 54 bd 4f 43 b9 3d 1a 15 d6 bd 53 fd 01 bc
       -0.05195926 0.09046041 -0.104532436 -0.007933932
000040 c5 13 50 3d b8 c0 89 bd 08 04 83 bd 11 5d 5a 3d
       0.050800104 -0.06726211 -0.06397253 0.05331141
000050 a6 3a dd 3c 06 99 a8 bb 04 23 fe 3c 33 d8 32 bc
       0.027005505 -0.005145195 0.031022556 -0.010915804
000060 df 90 1f 3d 07 be 8e 3b 8c 5f 80 bd f8 8b a6 bd
       0.03895652 0.004356149 -0.06268224 -0.08132166
000070 f5 d8 26 bd ed 92 75 3d 5f 95 94 ba 50 b7 5e 3d
       -0.04073425 0.059954572 -0.001133602 0.05437404
000080 67 b3 be bd cb 47 58 bd 1c 81 d2 bd a6 64 88 3d
       -0.09311562 -0.052802842 -0.10278532 0.06659822
000090 75 9a 6b bd e2 1b 64 bd d7 93 14 bd 5b 87 6d bd
       -0.05752035 -0.055690654 -0.036273804 -0.057990413
0000a0 14 10 10 3d b0 0e f1 3c 12 90 d8 bd 73 93 d2 bd
       0.035171583 0.029425949 -0.10574354 -0.1028203
0000b0 e8 63 11 bd 60 50 b0 3d d0 ac 49 bc 5a 6a c8 3b
       -0.03549567 0.0860908 -0.012309268 0.0061161937
0000c0 a9 a5 d1 3d 89 c2 b7 bc 92 34 9b 3d 13 d8 0d bd
       0.10236675 -0.022431629 0.07578386 -0.034629893
0000d0 95 09 b1 bb 9a a3 62 3c 02 9c f4 bc c1 65 b4 bd
       -0.0054027536 0.013832951 -0.029859547 -0.088084705
0000e0 18 fa c0 3d d5 38 8f 3d ea 9a c3 bd 0a ca 4d 3c
       0.094227016 0.06993262 -0.09551032 0.012560377
0000f0 c0 e5 b2 3c 29 3a 19 bd 78 0c 2e 3d c8 33 37 bd
       0.021838069 -0.03740898 0.04249236 -0.044727117
000100 f1 e7 b3 bd 2b ea 47 3d b2 14 7f 3d c1 9e cb bc
       -0.08784474 0.048807304 0.062275596 -0.024855973
000110 45 2d 10 bd 54 b8 1a bb 45 95 86 3d 0b 2d d8 bc
       -0.035199422 -0.0023608403 0.0657144 -0.026388666
000120 66 49 2f bd 62 c9 ba 3d 67 fb 7c 3d 33 55 7f bb
       -0.042794608 0.09120442 0.061763193 -0.0038960695
000130 76 c5 64 3d 5f 76 e7 bd 44 c5 a6 bd 86 fc 91 3d
       0.055852376 -0.11301874 -0.08143094 0.07128243
000140 db 25 23 3b 2a 68 57 3b 08 2c 6b bd 6c 9d d9 bb
       0.002489439 0.0032868483 -0.05741504 -0.0066410806
000150 58 9c 45 bd 8b 82 23 bd 38 47 ea bd 7d 47 ac 3d
       -0.048244804 -0.039919417 -0.11439365 0.08412073
000160 f2 28 e9 3d 5f 75 d4 3b 9c 0c ff 3d b2 34 db 3c
       0.11384763 0.0064837183 0.12453577 0.026758526
000170 c3 bb a0 3d 7f 42 4a bb 9c 43 9c bb d1 d6 c8 3c
       0.07848313 -0.0030862389 -0.004768802 0.024516495
000180 e1 87 65 3d 44 4d 0f bd 35 50 87 bd 0c bd d3 bd
       0.056037787 -0.034985796 -0.06607095 -0.10338792
000190 e2 68 50 3d ad c9 65 bc ae ad c2 3d 01 09 96 3d
       0.050881274 -0.014025134 0.09505783 0.07325936
0001a0 e8 35 c7 bc 5b b0 ea 3c 55 4d 85 bd fa 60 e7 3d
       -0.024317697 0.028648546 -0.065088905 0.11297794
0001b0 cf 76 34 bb d2 98 d9 3b 88 1d 98 bd de a4 3b 3d
       -0.0027536636 0.006640532 -0.07427508 0.045811526
0001c0 ab 4c 86 bd e2 5b 0c be fb f3 a8 bc 4e 02 8b bd
       -0.06557592 -0.13706926 -0.020624151 -0.06787549
0001d0 06 35 86 3c df ec d8 bd 6a 25 15 3d 7f b6 71 bd
       0.016382705 -0.105920546 0.036412634 -0.059011932
0001e0 92 e2 cc bc ab 82 72 3d 07 35 1a bd 4e db 25 bd
       -0.02501038 0.059206646 -0.037648227 -0.04049235
0001f0 53 26 83 3d 35 0c 9f bd 89 42 d5 3b 90 a9 80 3b
       0.06403794 -0.07766 0.0065081757 0.0039264634

mu_layer.weight f4 [2, 128]
000000 e9 f6 cd 3d c5 eb 7d 3e 37 7c 99 bd 65 49 03 3e
       0.1005686 0.2479697 -0.07494395 0.12820967
000010 1b b6 ed bd 30 3f 87 be f4 be ad 3d 9d cb 08 be
       -0.116069995 -0.26415396 0.08483687 -0.13358922
000020 16 ab ec bd d8 d9 8e bc b4 63 05 be 0a 66 05 be
       -0.115560696 -0.01743786 -0.13026315 -0.13027206
000030 a9 c4 d0 bd 4f 04 92 bd 6e 43 0b be 66 31 00 3e
       -0.1019376 -0.07129728 -0.13599941 0.12518844
000040 6b 5d 49 bd 1a da 6c 3e 2c 5a 6f 3e b2 d2 8d be
       -0.049161356 0.23130074 0.23374242 -0.2769981
000050 d8 24 be 3d b2 23 e6 3c 2a 08 04 be 67 5b 96 be
       0.09284371 0.028093193 -0.1289374 -0.2936661
000060 db f0 1a 3e 7b 41 ba bd 16 bc 22 be ce 78 9e 3e
       0.15130942 -0.09094521 -0.15892062 0.30951542
000070 f5 3d 39 be e0 07 4b bd 02 e6 55 3d 4b a4 36 3e
       -0.18090041 -0.049568057 0.052221306 0.1783611
000080 f7 53 b2 bc 3f 25 13 3d 32 9e d5 3d c4 04 53 be
       -0.021768553 0.035924193 0.10430564 -0.20607287
000090 2a 16 e2 3d f0 37 71 3d 40 aa 3b 3e d5 60 3b 3e
       0.11039384 0.058891237 0.18326664 0.18298657
0000a0 6f 39 95 3d 89 8b a5 3d 9f c3 9d bd 48 cc 09 3e
       0.07286345 0.08083255 -0.077033274 0.13456833
0000b0 5d 49 de 3c 8f 2f d2 3d c0 29 f4 bd d1 1b 57 3d
       0.027134592 0.10262977 -0.11922026 0.052516762
0000c0 81 52 ee bc 82 f4 69 bd 7a 9b 8a 3d 7c e7 9f be
       -0.029092075 -0.057117946 0.06767936 -0.31231296
0000d0 46 c6 7d be aa 16 9d 3c 8b 11 fa 3c 5c b4 45 bd
       -0.24782667 0.019175846 0.030525943 -0.048267707
0000e0 c9 f1 b5 3d 13 fb ee bc 0a bf 6c 3d 0d 03 1c 3e
       0.088840075 -0.029172456 0.057799377 0.15235539
0000f0 dc a4 62 3e a0 bc 1a be 37 0b 05 bd 0c a3 2d bd
       0.22133201 -0.15111017 -0.0324814 -0.04239182
000100 3a 77 64 3d fa 04 5e 3c b6 bb ff 3d 71 ee 4a bd
       0.055777766 0.013550991 0.12486975 -0.0495438
000110 99 1a 4e 3e d6 c6 20 be 2c e6 00 3e 56 59 bd 3c
       0.20127334 -0.1570085 0.12587804 0.023113888
000120 5d bb 5f 3e 6f 4f be bd 53 de 24 3d 53 75 3f 3e
       0.21848817 -0.092924945 0.040251087 0.186971
000130 28 c3 a5 3e 7f f3 98 3c f1 bb 18 be 3e 16 a1 bd
       0.32375455 0.018670795 -0.14915444 -0.078655705
000140 6e 00 20 3e 8a 4b 7f bd 86 e1 29 3c 61 ff 45 be
       0.15625164 -0.0623279 0.01036871 -0.193357
000150 41 5f 2a 3a 89 1e 06 3e 5d 26 aa 3d 5f 42 9e 3b
       0.0006499179 0.13097586 0.083080985 0.0048296894
000160 f2 01 40 bb fc 60 76 bd 35 09 62 bd 57 4c 87 bd
       -0.0029298034 -0.060151085 -0.05518456 -0.066063575
000170 b9 70 50 bd 8c 7e 98 bb cf 40 61 3e d8 5f bb bd
       -0.05088875 -0.0046537574 0.21997379 -0.0914914
000180 f0 60 d1 bd 62 d3 55 3e cd 16 87 3e f1 c4 32 3e
       -0.102235675 0.20881417 0.26384583 0.1745794
000190 90 11 86 be 02 b5 0e be 19 70 f6 bd 1a d9 22 3d
       -0.26185274 -0.13936237 -0.120331 0.039757825
0001a0 cd 13 87 3d 00 5e 7c 3e 19 06 fc bd 24 b4 f7 bd
       0.065955736 0.24645233 -0.123058505 -0.12094906
0001b0 02 8f 71 be 8b 18 eb bd 9f 9f 67 3e ea 3e 5b bd
       -0.2358971 -0.114792906 0.22619484 -0.053526796
0001c0 41 ea 91 be 00 eb 93 3d 56 43 a7 3e 9e 58 4d 3c
       -0.28499034 0.07222557 0.3266856 0.012533335
0001d0 72 97 fd 3d 71 f0 c6 3d f0 50 86 be 19 51 2f bc
       0.123824015 0.09713829 -0.26233625 -0.0107004875
0001e0 e4 42 f7 bd 85 9c fb bd 31 d1 a0 bd 42 d4 44 3e
       -0.12073305 -0.12285713 -0.078524 0.19221595
0001f0 fc 38 13 be 59 e2 8a be 0a d8 0c 3e 1a 4e 30 3e
       -0.14377207 -0.27125815 0.13754287 0.17217293
000200 ee 93 a1 3d ef ff 33 be 05 bc 95 bd d5 e1 02 3e
       0.078895435 -0.175781 -0.073112525 0.1278146
000210 f3 31 bb 3d ae 5d 8e be 67 44 d5 3d 24 4e 0f be
       0.091403864 -0.27805847 0.10413437 -0.13994652
000220 b1 2d b9 3d 9d 76 4c 3c 3d 59 67 3d 45 2e fc ba
       0.09041918 0.0124794515 0.05648159 -0.0019239864
000230 35 fa 11 be ae 2a 73 3c d1 e3 3b 3d 6e 59 2b 3d
       -0.14255603 0.014841719 0.04587156 0.041833334
000240 bf 59 04 be 02 30 7b 3e 22 7a 7e 3e 9d 06 99 be
       -0.1292486 0.24530032 0.24851277 -0.29887858
000250 02 3c 8d 3d b7 20 ad bc 49 16 76 3d 2c 1d 98 be
       0.06896211 -0.021133764 0.060079847 -0.29709756
000260 60 3c 81 bc ca 74 a9 bd bc 19 ba ba c4 a2 a5 3e
       -0.01577586 -0.08274229 -0.0014198343 0.32350743
000270 36 7e 4a be cb 25 05 bd 75 96 a6 3c 75 f5 01 be
       -0.19774708 -0.032506745 0.020335415 -0.1269129
000280 fe b0 c1 bd 6c aa 0f 3d 66 99 c0 3d 0a a5 69 3e
       -0.09457587 0.035074636 0.094042584 0.22816864
000290 d0 b3 84 3d 16 73 c2 3b 26 b3 1b bd 54 23 ad bd
       0.06479609 0.0059341295 -0.038012646 -0.08454004
0002a0 07 33 a4 3d 5d 9c 9b be 91 dc c8 bd a8 b1 15 3e
       0.08017545 -0.30392733 -0.09807695 0.14618552
0002b0 e9 cc b4 3c e5 32 f2 3d f5 5c 26 be 5e fe 45 3d
       0.022070365 0.118261136 -0.16246398 0.048338287
0002c0 3c 75 2f 3b 30 0a 35 be 5f f7 a9 bd 78 b9 87 3d
       0.0026772758 -0.17679667 -0.082991354 0.06627172
0002d0 3a f0 81 be c6 9e 2e be 40 34 17 3d b8 2d a8 ba
       -0.2537859 -0.17052755 0.036915064 -0.0012831008
0002e0 dc 2d 94 bd 98 27 99 3d d9 6c 63 bd 24 18 98 be
       -0.072353095 0.07478255 -0.055523727 -0.29705918
0002f0 7c 33 0a be 28 35 23 be c1 c1 f8 3c 1d 85 93 3c
       -0.13496202 -0.15938246 0.030365827 0.01800781
000300 d5 ae ce bd 0c 24 22 bc 6a 1a 0c 3e 89 e4 ec 3d
       -0.1009194 -0.00989629 0.13681951 0.11567027
000310 4b d8 59 3e b1 54 59 bd de d2 0f 3e c7 ef 17 3d
       0.21273915 -0.053059284 0.14045283 0.037093904
000320 04 54 6a 3e f4 00 78 bd cf 92 d9 bd c4 f4 47 be
       0.22883612 -0.060547784 -0.10623705 -0.19526964
000330 e0 ee a9 bd cb 32 69 bd 1e b3 1f 3e c0 a4 5c 3d
       -0.08297515 -0.056933206 0.15595672 0.053868055
000340 51 a2 29 3e 69 04 e9 bd b8 3b 53 3d 78 ad 3f be
       0.16565825 -0.11377794 0.051570624 -0.18718517
000350 53 cd 5a 3e 11 0e 94 3d 88 98 ca 3d b0 90 f9 3c
       0.21367387 0.072292455 0.09892374 0.0304645
000360 98 d4 ab 3d b4 79 97 bd bd 9e 98 bd 03 f5 09 bd
       0.083901584 -0.0739626 -0.07452152 -0.033680927
000370 2b 19 7b bd 52 76 4f 3c 61 85 57 3e 39 15 c6 3d
       -0.0613033 0.012662487 0.21046974 0.09672017
000380 d2 82 af 3d ed 18 50 3e fc d0 90 3e 13 d5 3f 3e
       0.08569874 0.20322008 0.28284442 0.18733625
000390 bb 35 7f be 86 2c 34 3c 1e 5e 97 3d aa 71 21 3d
       -0.2492284 0.010996943 0.07390998 0.03941504
0003a0 77 c7 6a 3d 35 dd 84 3e 86 d6 b9 3d 5d 64 fe bd
       0.05731913 0.25950018 0.0907412 -0.124214865
0003b0 55 40 a5 3d 13 ae 4b 3e 36 90 64 3e e0 29 b0 bd
       0.08068911 0.19890623 0.22320637 -0.08601737
0003c0 61 5b 57 3e 36 89 e3 3c f8 e6 c3 bc 33 6b 1f 3c
       0.21030952 0.027775388 -0.023913845 0.009730148
0003d0 8e 51 3c 3e 6a 75 ce bd 00 db 87 be c1 23 f1 3c
       0.18390486 -0.10080989 -0.2653427 0.029435994
0003e0 4b 52 f0 bd 6f fd 8e 3c 85 cc b8 3d 6d 11 03 be
       -0.11734446 0.01745483 0.09023384 -0.12799616
0003f0 43 23 27 be d0 a9 aa be 82 1d fa bd bc 19 eb 3d
       -0.16322045 -0.33332682 -0.122126594 0.11479518

mu_layer.bias f4 [2]
000000 d8 d7 cd bc 1a 9d da bc
       -0.025127336 -0.02668624

log_std_layer.weight f4 [2, 128]
000000 90 a3 44 be 6c 92 06 bd 8d 96 82 3d df 18 ae bd
       -0.19203019 -0.032854483 0.063763715 -0.085008375
000010 b4 11 ea bd 33 c7 db 3d 5d c8 2f 3e 94 74 16 3e
       -0.11429158 0.107313536 0.17166276 0.14692909
000020 a1 a2 3c be ad 0d 1f be 73 31 53 3e b7 00 17 bd
       -0.18421413 -0.1553256 0.20624332 -0.036865916
000030 3b b0 86 bd 0a c7 06 be 7a 44 23 3e cb 07 de bd
       -0.06576582 -0.13161865 0.1594409 -0.1084133
000040 a2 5b ab bd c6 eb 07 be 48 6e fa bd 8e 32 86 bc
       -0.08367087 -0.13273534 -0.12228066 -0.016381528
000050 bb 18 86 be fd 10 0f be da cf 40 bd d5 55 47 3e
       -0.26190743 -0.13971324 -0.047073223 0.19466336
000060 5a 54 20 be fd 00 27 3e bf e9 31 bc 14 00 36 be
       -0.15657178 0.16308971 -0.010858952 -0.17773467
000070 44 c0 2e 3e e7 57 20 be 9c 6b 90 3d d5 a6 15 3e
       0.17065531 -0.15658532 0.07051775 0.14614423
000080 20 d5 ed 3d 81 36 44 bc 1e fd 14 3e 69 58 52 be
       0.11612916 -0.011975885 0.14549682 -0.20541538
000090 6c ca 0e 3e 09 33 b0 3d 26 87 28 be 7f da 5b 3e
       0.13944405 0.08603484 -0.16457805 0.21470068
0000a0 22 ca 28 3c 80 86 83 3c 4d 0a fe 3d 50 f8 91 3b
       0.0103020985 0.016055346 0.124043085 0.00445465
0000b0 c9 0b 0e be 07 89 15 bc 79 37 75 bd e5 30 df bd
       -0.13871683 -0.009126908 -0.059867356 -0.10897998
0000c0 33 43 25 be 39 bd 2b bd 0f 9b f9 bd 2d b3 48 bd
       -0.16138916 -0.041928504 -0.12187778 -0.048999
0000d0 64 af 3a 3e df a0 55 be 86 ff 16 3e 86 6d 2a 3e
       0.18230969 -0.20862149 0.14745912 0.16643342
0000e0 63 76 0d be 48 7c ea bd 48 b6 a2 3d cf c3 05 3e
       -0.13814692 -0.11449486 0.07944924 0.13062976
0000f0 9b c8 bc bd 36 56 25 3e d0 a7 ba 3c 64 36 53 3e
       -0.0921795 0.16146168 0.022785097 0.20626217
000100 fb 1d 27 3e 00 70 27 be 3f 23 82 be a0 c4 2b be
       0.1632003 -0.16351318 -0.25417516 -0.16774225
000110 05 6e ad bd 0f 45 33 3e f7 7c 62 be ff a3 34 3e
       -0.0846825 0.17506813 -0.22117983 0.17640685
000120 f8 b0 02 be 1a 4e 07 be b7 2f 0b be 42 ad b0 3d
       -0.1276282 -0.13213387 -0.1359242 0.08626796
000130 fe e8 73 bd e0 fc 39 3e 5c c0 25 bd 91 66 37 be
       -0.05954837 0.1816287 -0.04046665 -0.1791022
000140 d1 a3 8a be f4 80 fb bd 13 81 16 3e e0 34 4c 3e
       -0.27078107 -0.12280455 0.14697675 0.19942045
000150 f6 64 86 3d 39 28 92 3d 84 86 2f 3e 46 3c 5d be
       0.065622255 0.07136578 0.17141157 -0.21605024
000160 06 18 b0 bd 90 d1 1e 3e b5 78 36 be ab d0 d2 bd
       -0.08598332 0.15509629 -0.17819484 -0.102937065
000170 cc e7 ea bd e6 8c 38 3e bc cc fb 3c 7d 99 5d 3e
       -0.11469993 0.18022498 0.030737273 0.21640582
000180 ad 54 7f be e6 e6 3c be 78 2e 96 bd a1 d6 ed bc
       -0.24934645 -0.18447456 -0.07333082 -0.029033007
000190 eb 5f a9 3e d1 0b 11 be 73 b1 7d bd bc 9c 4e be
       0.33080992 -0.14164664 -0.061936807 -0.20176977
0001a0 0c af d3 3d c2 19 9f bd 7b 13 ec 3d 06 78 9e bd
       0.10336122 -0.07768585 0.11527153 -0.077377364
0001b0 d2 9c be bd dd c2 8b bd 9a 9a 05 3e 15 7f a0 bd
       -0.09307255 -0.068242766 0.13047257 -0.07836739
0001c0 fc 67 4b bc 43 22 1d 3e bf 63 5b 3d 9f 6b 60 3d
       -0.0124149285 0.15345101 0.053561922 0.054790135
0001d0 e8 27 7d 3d eb 14 45 3e 3b 38 40 3e 53 fa 24 3e
       0.061805636 0.19246261 0.1877145 0.16111116
0001e0 cf 37 19 3d e8 23 19 3e 31 7b 0e 3e 7e bd 51 bc
       0.03740674 0.14955103 0.13914181 -0.012801526
0001f0 58 3b 07 3d eb 1f 33 3e 09 21 32 3e be 2f 3c 3b
       0.03301558 0.17492644 0.17395414 0.002871498
000200 b5 5b 29 bc 97 2c 25 be 3b 4c 10 3e 66 84 df 3d
       -0.010336806 -0.16130291 0.1409158 0.10913925
000210 9e 75 4f be ab a6 5f 3e a4 9f 30 bd e9 09 68 3e
       -0.20259711 0.21840923 -0.043120995 0.2266003
000220 12 ef f1 bd 43 41 37 be 5b a0 44 bd 9b 22 11 bb
       -0.11813177 -0.17895989 -0.04800449 -0.002214587
000230 b9 f2 e8 3d 75 ca 39 be 91 35 66 3e 5a ce 19 be
       0.11374421 -0.18143637 0.22481371 -0.15020123
000240 f0 30 30 bc 9d 51 21 3d c6 83 2c bd 79 6c 52 3e
       -0.010753855 0.039384473 -0.042117856 0.20549192
000250 3a 20 02 3d 2b 8c 07 be 59 a9 04 be 6e 2a 24 bc
       0.031769015 -0.13237064 -0.12955226 -0.010019882
000260 aa 88 95 3b dd 97 57 3e e1 72 2d 3e 3b b6 51 be
       0.0045634108 0.21054025 0.16938354 -0.20479672
000270 2a d9 ec 3d a3 d4 19 be 97 d0 1f be d3 29 92 bd
       0.11564858 -0.1502252 -0.15606914 -0.071368836
000280 f4 da 69 3e d2 c1 00 be ad e6 44 3d af e2 2a bd
       0.2283743 -0.12573937 0.048071552 -0.04172009
000290 c5 a3 e2 3d 15 3a 6b 3e 13 3d b2 bd d5 bc a1 3d
       0.11066393 0.22971375 -0.08703055 0.07897345
0002a0 35 ee 0e 3d e6 46 9f bd 3e 44 53 3e 30 7e ca 3d
       0.03489514 -0.07777195 0.20631501 0.098873496
0002b0 06 10 00 be 08 5f 25 be 48 24 a2 bd 2b 0b 8c be
       -0.12506112 -0.16149533 -0.07917076 -0.2735227
0002c0 b6 c1 e7 bd 47 09 f4 bd 1a 98 82 bd 8b 88 9c 3d
       -0.11316244 -0.11915832 -0.06376667 0.07643231
0002d0 b7 24 52 3e ac e1 70 3d b7 7f b4 3d b0 14 1f 3e
       0.20521818 0.058808967 0.08813422 0.15535235
0002e0 28 f0 3e be 71 e7 77 be 53 3d 67 3e fd 14 72 3d
       -0.186463 -0.24209382 0.22581987 0.059102047
0002f0 bc 86 be bd d9 b6 81 3e 1c 1a 6b be 68 31 0f 3e
       -0.09303042 0.25334814 -0.22959179 0.1398369
000300 cb f4 f5 3d b2 a6 37 3d 21 27 ab bd cf f5 54 be
       0.12009581 0.044836707 -0.083570726 -0.20796894
000310 ad 51 8a be e4 b4 4b bd 31 16 49 be bc 55 94 3d
       -0.2701544 -0.049733058 -0.19637372 0.07242915
000320 f0 d1 08 be 30 39 c7 bd a1 cc 50 bd 58 11 21 bd
       -0.13361335 -0.097277045 -0.0509764 -0.03932318
000330 e8 02 ce bc 71 30 c6 3d 50 ab 40 3e 82 1b 86 3c
       -0.02514787 0.09677208 0.1881535 0.016370539
000340 7a b3 ad bd 69 d9 51 be 5e c2 be 3d 37 a8 1f 3e
       -0.08481498 -0.20493092 0.09314416 0.15591513
000350 d8 a5 9a bd ab 38 3f 3d fd 3f 7f bc 94 ae 07 be
       -0.075511634 0.046684902 -0.015579221 -0.1325019
000360 33 84 84 be 30 56 57 3e 70 18 21 be 34 15 40 be
       -0.2588211 0.21028972 -0.15731978 -0.18758088
000370 99 59 2e be e1 e8 af bd c3 c5 73 3c de 69 39 3e
       -0.17026366 -0.0858934 0.014878693 0.18106791
000380 54 b0 ab bc a1 e0 42 be 64 59 6a be 82 d9 a3 3d
       -0.020958103 -0.19031002 -0.22885662 0.08000471
000390 cc de 50 3d c7 11 04 be 6c 45 1e be c6 cd 11 bd
       0.050993726 -0.12897407 -0.1545617 -0.03559663
0003a0 88 3b c9 3c 51 be 11 be 9a 7a 66 3e e7 0a 17 bd
       0.02456452 -0.14232756 0.22507706 -0.03687563
0003b0 b7 ba a0 3d d9 ba 5b 3e e3 c7 52 be 79 67 b4 bd
       0.07848113 0.21457995 -0.20584063 -0.08808798
0003c0 d2 b4 5e bd 31 c8 0f 3e eb 67 e8 3c c3 27 fd 3d
       -0.054371662 0.1404121 0.028369864 0.123610996
0003d0 00 6b cc 3d 73 87 1c 3e 72 6e 71 3e 5d e3 07 3e
       0.09981346 0.15286045 0.23577288 0.13270326
0003e0 16 94 df 3d a6 53 b6 3d 1f fc 18 3e 54 b0 95 3d
       0.10916917 0.089026734 0.14939927 0.073090225
0003f0 a7 0e 71 bd 24 c7 47 3e 8f 9f 84 3d 0e 06 15 3e
       -0.058851864 0.1950956 0.06475746 0.14553091

log_std_layer.bias f4 [2]
000000 0c 30 10 be b5 37 33 be
       -0.14080828 -0.1750172

q_net.fcs.0.weight f4 [128, 32]
000000 84 b3 ad 3e 8f c8 8f 3f 9e a6 26 3f f7 35 80 3f
       0.33926022 1.1233081 0.6509799 1.0016469
000010 b1 87 26 3f e5 3f 9d be 58 44 66 bd 83 f6 5f 3e
       0.650508 -0.3071281 -0.05621752 0.2187138
000020 6f 4e 3e 3e e1 74 0d 3e 60 2e 0c 3c 50 cb 64 3d
       0.18584608 0.13814117 0.008555979 0.055857956
000030 ee 0e b5 bd d9 93 0e 3e 42 d3 19 3e 08 4e 1f be
       -0.08840738 0.13923587 0.15021995 -0.1555711
000040 af d2 af bd 32 88 26 3e 93 2d 1c be 07 0d 64 3e
       -0.085851066 0.16262892 -0.1525176 0.22270595
000050 a8 0d 5b 3e 71 12 ca 3d 2a b1 33 bd 3a 3b b8 bc
       0.21391928 0.09866799 -0.04387013 -0.022489179
000060 1e 98 a9 3d 14 12 94 3c ba cd dd 3e 07 06 0b 3e
       0.08280967 0.018075027 0.4332102 0.13576518
000070 ee e4 04 be 3f 9d 02 3d e5 3f cc 3e f1 20 36 3f
       -0.12977955 0.031888243 0.39892498 0.71144015
000080 bd 96 34 be 08 18 48 40 7f 75 40 3f 4f 54 bd bf
       -0.17635627 3.1264668 0.75179285 -1.4791354
000090 14 fc 07 bf 86 0b 0c 3f 4e 83 1f 3d 6c 07 e3 bc
       -0.53119016 0.54705083 0.03894358 -0.0277135
0000a0 7a ea 81 be 8d 24 ee bd b8 0d af 3d 14 32 fd 3d
       -0.25374204 -0.11628065 0.085475385 0.12363067
0000b0 99 e6 ea 3c ab ea b6 3a 1c 65 cf be ef 9e 8a bd
       0.02867441 0.0013955435 -0.40506828 -0.067685954
0000c0 09 02 02 3d 37 d6 32 be e4 b5 a6 bd f0 86 31 be
       0.031740222 -0.17464529 -0.08140162 -0.17336631
0000d0 be 2a 0e be 75 f4 a9 bd 83 46 5f 3d 47 12 ac bb
       -0.13883492 -0.082985796 0.054510605 -0.0052512023
0000e0 a5 a5 c5 bd 86 7f 1f 3b 71 b1 3c be 0e d5 42 be
       -0.09650735 0.0024337485 -0.18427064 -0.19026586
0000f0 04 af be 3d 14 b8 c2 bd 14 d6 40 c0 f2 ec 33 40
       0.09310725 -0.09507766 -3.0130663 2.811337
000100 80 4a 4d 3f 7e 89 8f be 7b d8 80 be d2 42 75 3f
       0.801918 -0.28034586 -0.25165161 0.95805085
000110 2b 45 fe be 1c 35 76 3e 65 d6 1b 3e 83 03 b7 3e
       -0.49662146 0.24043697 0.15218504 0.35744867
000120 2d a4 b8 3e f1 01 85 3e 62 35 d7 bd bc 8a d3 bd
       0.36062756 0.25978044 -0.10508229 -0.10329196
000130 69 ee a7 3d c7 16 d7 3e bb d7 e0 3e f1 1f c9 3d
       0.0819977 0.42009565 0.4391459 0.098205455
000140 5a 43 25 3e 47 03 0e 3e 38 a6 e2 3c 30 93 cc 3e
       0.16138974 0.13868438 0.02766715 0.39956045
000150 ad ac 1c 3f 54 2d 56 3e f2 a0 69 bd 5d 44 0c be
       0.6120098 0.20915729 -0.057038255 -0.13697954
000160 12 06 99 3e 3a 4a c7 3e ed b1 17 3f 60 64 8e 3d
       0.29887444 0.38923818 0.5925587 0.06952739
000170 be 3f a1 3c 2b 31 e3 bc eb 50 f3 3e c3 c4 d4 bd
       0.019683715 -0.027733406 0.47522673 -0.10389092
000180 dc 58 b1 be 5c 5d 4b 40 82 5a 67 3e af 3d fd bf
       -0.34638107 3.1775732 0.2259312 -1.9784449
000190 49 24 ac bf 13 f7 28 3f b4 28 bc 3e f4 f6 d0 bf
       -1.3448573 0.66002005 0.36749804 -1.6325364
0001a0 c2 fa 34 bf 37 8f 79 3e 24 5c 29 be 6b 6d c1 bd
       -0.70695126 0.24371038 -0.16539055 -0.09444698
0001b0 bc 9b 13 3e d4 0d dc bf d2 9c 3d bf 67 0e 71 3e
       0.14414877 -1.719172 -0.74067414 0.2354065
0001c0 4c 1b 73 bb 7e 21 c5 bd f1 a3 a8 3d 34 43 db bf
       -0.0037095128 -0.09625529 0.08234394 -1.7129884
0001d0 01 a7 34 bf b6 27 9b 3d 11 85 ff bd 14 85 16 bd
       -0.7056733 0.07575934 -0.12476552 -0.036748007
0001e0 16 01 8f 3e f0 69 dc bf 20 49 62 bf 40 49 d1 3e
       0.27930516 -1.721983 -0.8839283 0.40876198
0001f0 15 e1 39 bd 55 79 3a 3d 40 8b 90 c0 26 68 2e 40
       -0.04538067 0.045525867 -4.5169983 2.7251067
000200 80 85 04 be 5d ad 6a 3e 48 55 3d 3f ba 71 66 c0
       -0.12941551 0.22917695 0.73958254 -3.6006913
000210 42 3e b3 be 4f cb a1 bd 88 70 dd 3e 2a c0 c4 bd
       -0.35008436 -0.07900106 0.43249917 -0.09606965
000220 e1 94 92 be 6e ad a0 3e a2 5e c3 3c 06 d4 06 be
       -0.2862921 0.31382316 0.023848835 -0.13166818
000230 37 79 0a 3f c5 e6 5f 3b 77 75 99 be 09 83 8a 3e
       0.5409121 0.003416465 -0.2997243 0.27053097
000240 81 c2 27 bd 56 60 1f 3e 32 65 b7 3e 4a 48 93 3c
       -0.040956978 0.15564093 0.35819393 0.017978806
000250 13 46 6f be f9 6b ea 3e e8 86 0e 3e 07 c4 90 3d
       -0.23366575 0.45785502 0.1391865 0.07068639
000260 ee 37 9e 3e f6 84 8f be 8b e2 28 be 31 f0 02 3f
       0.30902046 -0.2803113 -0.1649267 0.51147753
000270 9d cf e7 bd 10 c9 2a 3e 83 95 a9 3e 0e 38 8d be
       -0.11318896 0.16678262 0.3312188 -0.2758183
000280 9b 5c 3d bf 4e 32 9d 3f d4 23 66 3f 2b d5 5c c0
       -0.7396943 1.2280977 0.8989842 -3.4505107
000290 54 8e 46 3d af 5d ab 3c 5d c3 3f 3f a5 67 a1 bf
       0.04847558 0.020918695 0.74907476 -1.2609755
0002a0 d1 9d 8f bf c6 b5 50 3f c9 c6 3d bd f6 b8 81 3d
       -1.1220037 0.81527364 -0.046332154 0.063341066
0002b0 7e da 14 3f 71 a9 95 bf f2 ed 7e bf 60 34 42 3f
       0.5814589 -1.1692334 -0.99581826 0.7586117
0002c0 40 a1 27 3d 8b 14 06 3e e9 83 2e 3f f1 e7 76 bf
       0.040925264 0.13093774 0.6817003 -0.96447664
0002d0 25 0f 90 bf a2 7a 6a 3f e3 2c 98 bd f9 6f 20 3e
       -1.1254622 0.9159337 -0.074304365 0.15667714
0002e0 65 7e 60 3f cc 92 81 bf 1e 39 57 bf f0 d7 1d 3f
       0.8769286 -1.0122924 -0.8407153 0.6165762
0002f0 39 4f 09 be 4a 08 c5 3d 7b ba 63 c0 c9 f2 28 40
       -0.13409127 0.09620722 -3.5582569 2.6398184
000300 db 4d 3a 3f 8a 65 0e 40 71 83 ee 3e c2 57 d2 3f
       0.7277505 2.2249475 0.46584657 1.6433032
000310 3a f8 3d 3f 20 38 04 bf ef 1a d5 3d 6a 1a 79 3f
       0.7420689 -0.5164814 0.10405528 0.9730593
000320 4e 32 ad 3e 4b 90 2c 3e 82 af f6 3d a2 a7 cb 3d
       0.33827442 0.16851918 0.12045194 0.09944083
000330 78 cd 49 3c 1d cb 87 3f e2 a0 78 3e 47 bf 89 3e
       0.012317054 1.060886 0.24280122 0.26903746
000340 96 93 1b be ca 7b 26 be ee ee 44 3e 94 77 62 3f
       -0.15193018 -0.1625816 0.1923177 0.8846371
000350 63 0a 92 3d 39 b7 42 3e 88 bf b8 3d 34 4e d4 bd
       0.07130887 0.19015206 0.09020907 -0.103664786
000360 d1 26 b7 3e cd 1a 77 3f 00 fb 41 3e 2f 02 9f 3e
       0.35771802 0.9652527 0.18943405 0.31056353
000370 20 f2 ec 3d 1f 56 c4 bd 77 96 92 3e b3 b2 4e 3f
       0.11569619 -0.09586739 0.2863042 0.80741423
000380 94 83 42 3e e5 c8 5b c0 40 19 4f 3e 75 d7 49 bf
       0.18995506 -3.4341366 0.20224476 -0.78844386
000390 7a 6e 37 3e ff c8 36 bf 47 67 9c 3e 3f e9 c0 3e
       0.17913237 -0.71400446 0.30547544 0.37677953
0003a0 7d 69 03 bf d9 0f 9d ba 50 2a 00 3e 3c 2e 90 3d
       -0.5133284 -0.0011982872 0.12516141 0.070400685
0003b0 1f eb 4b 3e 53 57 3d 3e dd b7 da be 15 f5 b1 3d
       0.1991391 0.18490343 -0.42718402 0.08689324
0003c0 8c 7e 1c bb 77 ce bd 3d c9 76 16 3d 28 07 9f 3e
       -0.0023879139 0.09267896 0.036734376 0.31060147
0003d0 0b c3 e1 be 0f e4 60 3e 7a 0d 98 3c 97 fb d4 b9
       -0.44094118 0.21961997 0.018561114 -0.0004062324
0003e0 95 57 a0 3e 8a a5 50 3d b0 4c 0d bf d3 dc 10 3d
       0.3131682 0.05093912 -0.5519514 0.035366844
0003f0 71 3e e4 3c 7b 45 2c 3e 21 a0 6d 40 03 1c 66 c0
       0.027861806 0.1682338 3.7128985 -3.5954597

q_net.fcs.0.bias f4 [128]
000000 fb 08 da 3e 15 a4 12 bf 6a fe 31 3f d9 57 d8 bf
       0.42584977 -0.5728162 0.6952883 -1.6901809
000010 a0 b7 d1 be 78 53 df bf d7 cd 2e 3f c2 d0 dc be
       -0.40960407 -1.7447348 0.68282837 -0.4312802
000020 33 53 ec be 65 05 cb bf 46 88 03 bf d4 a4 52 3f
       -0.46157226 -1.5861021 -0.5137981 0.8228276
000030 78 92 8b 3e 5b 31 bd 3d 1d fb a4 bf d0 5e 8d 3f
       0.27260184 0.092379294 -1.2889134 1.104456
000040 1e dd 7a bd 3b 5f de 3d 3f 9a 8e 3e ae a7 16 bf
       -0.06124603 0.108580075 0.27852055 -0.5884961
000050 9c ad 00 bf af b3 5b 3e 73 d0 96 3e b4 fb f2 3d
       -0.50264907 0.21455263 0.2945591 0.11864415
000060 59 4d 4a be f0 bf 3e 3e 1f d0 45 3f c4 ec 45 3d
       -0.19756068 0.18627906 0.7727069 0.0483215
000070 9c b6 6b bf 95 11 2f 3e 33 0a ef 3e f9 f1 9b bd
       -0.92075515 0.17096551 0.4668747 -0.07614512
000080 37 7b 23 3f 05 98 4c 3f 4c 28 be be 5f df cf be
       0.63859886 0.79919463 -0.3714012 -0.40600106
000090 52 ea c1 be 40 bb 23 3e 7e cb 17 be 3e 37 6c bd
       -0.37874085 0.15989399 -0.1482372 -0.05766987
0000a0 5d f1 8b bf b4 b0 5c be de 16 05 3b d7 ad fb 3e
       -1.0933033 -0.21551782 0.002030782 0.49156067
0000b0 f7 9e 7a 3f ce 03 2a bd 8e f9 2c bf aa 7b 97 3e
       0.9789881 -0.041507535 -0.6756829 0.29586536
0000c0 c8 97 88 3e 51 08 ed be ea 8c 68 3e 02 8e 0a 3f
       0.266783 -0.46295407 0.22710004 0.54122937
0000d0 35 c7 f6 be 8e 7b 32 be 31 e4 bb bd 1a 37 91 bf
       -0.48198858 -0.17429945 -0.091743834 -1.1344941
0000e0 20 bb 98 bf cb 7c df bf 01 2b 0a 3e 78 4d 1b bf
       -1.1932106 -1.7459959 0.13492967 -0.6066508
0000f0 08 86 b4 bf bd 2f 58 be 7b b2 b2 be 7f fc c8 bf
       -1.4103403 -0.2111196 -0.34901795 -1.5702056
000100 ce bb 57 3f 94 8e 98 bf 63 74 bd 3e e5 07 60 bf
       0.8427094 -1.1918511 0.3700286 -0.87512046
000110 b6 fc 48 bf 81 36 ad be 7b 12 d3 3c 91 a7 ee be
       -0.78510606 -0.33830646 0.025765648 -0.46612218
000120 7d 29 a9 3e 09 d5 d8 bf 66 ab 66 bf 31 36 fd bf
       0.33039466 -1.6940013 -0.90105283 -1.9782163
000130 d0 c4 6b bf e5 81 80 3e 35 98 15 3e 9a 48 f7 bc
       -0.9209719 0.25099102 0.14608844 -0.030185986
000140 af 91 33 3f 30 b2 07 3d 59 02 c5 bd fa 7b d3 be
       0.7014417 0.033128917 -0.096195884 -0.41305524
000150 e7 a5 bd 3d 1c 86 6f bf 51 f9 36 3f ef 29 52 bf
       0.09260159 -0.9356401 0.71474177 -0.82095236
000160 69 c0 ef be b6 37 ba bd 8e 9f cd bf d4 9c eb bf
       -0.46826485 -0.09092657 -1.6064317 -1.8407235
000170 a5 11 b4 be 06 44 87 bf c2 2b 2a 3e 3a 02 92 be
       -0.35169712 -1.0567634 0.16618255 -0.28517324
000180 49 81 90 bf 54 ae 28 3e af 25 56 bd d1 ee 97 3d
       -1.1289455 0.16472751 -0.05228203 0.074185975
000190 3c 8a 71 bf 2c d4 d7 bf 7d 2f 69 bf de 82 7d be
       -0.94351554 -1.6861625 -0.91088086 -0.24756953
0001a0 45 ec 9b bf 52 b3 95 bf 63 e6 27 bf f7 67 75 3e
       -1.2181479 -1.1695349 -0.6558592 0.2396544
0001b0 1f 1c 33 3f 27 1e 89 3d f4 a6 7a be 8f f3 25 bf
       0.69964784 0.06695204 -0.2447775 -0.64824766
0001c0 7a f7 a0 bf fa 57 b6 bf 76 5e c3 bf 87 de 1d bf
       -1.2575524 -1.4245598 -1.5263202 -0.61667675
0001d0 5c 94 90 3e 4c aa 81 bf d1 08 ec 3d f3 6a 28 bd
       0.2823819 -1.0130095 0.11525119 -0.04111762
0001e0 21 72 44 3c 04 4c 62 bf 89 c6 90 bf 8a d6 2a bf
       0.011990101 -0.8839724 -1.1310588 -0.6673361
0001f0 45 00 e4 be ae eb 46 3f 13 02 02 3f 72 06 e0 3e
       -0.44531456 0.7770337 0.50784415 0.43754917
